TinyDense.safetensors (safetensors, 406688 bytes, 2 tensors)

l1.weight f4 [128, 784]
-0.03080266 0.011800885 -0.026294548 0.02161806 0.020311177 -0.018404907 -0.035040095 0.02978203
-0.027930666 -0.023878366 -0.028301612 0.015134305 0.032289494 -0.0020279728 -0.028222263 -0.028725479
-0.015915144 0.008016426 0.018471424 0.019239299 -0.013292521 -0.03340789 -0.029645147 0.034353953
0.015454296 -0.016169732 0.016501613 -0.010874545 0.013826612 -0.01593007 -0.008436654 -0.019878
0.021578684 0.0060204566 0.006875754 -0.02067114 0.034246147 0.0033251871 0.009196323 0.020989873
-0.0025422634 0.034675196 0.005828484 -0.009674865 0.028512737 0.0119187385 -0.024562173 -0.0020524769
-0.022647647 0.030393645 0.016970199 0.017462203 0.010282155 -0.015135255 -0.029167108 0.00021452457
-0.014914565 0.03555968 -0.004485335 0.019675713 -0.0029793172 -0.01462833 0.0049371454 0.019219825
-0.02327055 0.011714219 7.809114e-05 -0.026732644 0.018831743 -0.00073419407 -0.009987715 0.020083427
-0.019893112 0.028192017 0.0047494164 -0.0053609195 -0.019773925 -0.03518956 -0.012264945 0.027628746
-0.027184118 0.0029149915 -0.009827094 -0.0050718486 -0.015403241 0.00597468 -0.0022451214 0.02985468
-0.0014822673 0.019749984 -0.004233799 -0.0006900165 0.029687855 -0.024498107 0.01104386 0.034970187
-0.03253974 -0.024423152 -0.024951974 -0.0052356063 0.013128006 0.03346685 0.02773147 -0.014656239
-0.009129009 0.026706016 -0.0333307 0.006810866 -0.026322104 0.015461345 -0.01353047 -0.015886521
0.016624443 -0.0028629825 0.017124306 -0.026761493 -0.014366795 -0.033947907 -0.01092792 0.023108192
-0.00031609408 -0.025419232 -0.023003558 -0.02367165 -0.0018815295 0.030940566 -0.0073621683 -0.006648911
0.02094457 0.027844146 -0.026020594 -0.030047698 0.022386944 0.011284071 -0.006764257 0.025087308
-0.0067863404 0.025589626 0.021707214 -0.033555217 0.007612858 0.02635539 0.0058110976 0.024310077
-0.022851406 -0.02198912 0.019652598 -0.0022442879 0.017036907 0.033742476 -0.014775536 0.0017479768
0.013598827 -0.013838631 -0.004164771 0.010017562 -0.019080186 -0.027197815 -0.030009788 0.017322507
0.015349666 0.024388887 0.016159946 0.021204114 -0.0073964293 -0.015361044 -0.030168083 0.024596957
-0.023115896 0.031778146 0.009458268 0.031466525 -0.034788363 -0.030135322 -0.034823604 -0.027245153
0.028865661 0.028071448 -0.014728327 0.032484766 0.02789219 0.027684718 -0.0053137722 -0.035150886
0.018948069 -0.032724816 -0.02426086 -0.039233323 -0.0063447356 -0.013619788 0.0058546276 0.003244293
-0.017856095 -0.01352829 -0.02890941 0.016210914 -0.005136976 0.032868262 -0.019632574 -0.015850771
-0.025618672 0.013698965 -0.028573457 -0.034890328 -0.023560345 0.0025381057 -0.0016766045 0.014675677
-0.0077608353 -0.015114287 0.024200195 0.0015944488 0.031056587 0.026597401 -0.013903252 -0.011226888
-0.041516293 -0.015551483 0.030556096 -0.013920948 -0.016370682 -0.0077865706 0.009796955 0.007054448
-0.0061928756 0.0066853995 -0.027303053 -0.0058965217 0.011148235 -0.00037180624 -0.022489276 -0.022870827
0.02260225 -0.028050963 0.00169869 0.007932125 -0.01247916 0.009891641 -0.0061764545 0.0025296214
0.02777067 -0.020895427 0.029706055 0.009982995 0.007842844 0.029689368 0.02236639 0.005461207
0.010944625 0.023459226 0.004965231 -0.021432783 0.014905305 -0.025168048 -0.02639845 -0.005498503
00000000: dc55 fcbc 8058 413c aa67 d7bc 5c18 b13c
00000010: a063 a63c e3c5 96bc 3486 0fbd 72f9 f33c
00000020: dace e4bc 909c c3bc c8d8 e7bc e0f5 773c
00000030: fd41 043d bde7 04bb 6032 e7bc b251 ebbc
00000040: 7a60 82bc 5457 033c 6251 973c bc9b 9d3c
00000050: e0c8 59bc b6d6 08bd 61da f2bc bbb6 0c3d
00000060: 0434 7d3c 6376 84bc 642e 873c 262b 32bc
00000070: 0489 623c c77f 82bc e439 0abc 30d7 a2bc
00000080: c8c5 b03c 4047 c53b 014e e13b 8656 a9bc
00000090: b045 0c3d 62eb 593b 2dac 163c f4f2 ab3c
000000a0: 1a9c 26bb 9407 0e3d defc be3b 5383 1ebc
000000b0: 8b93 e93c d046 433c 9c36 c9bc d982 06bb
000000c0: 8f87 b9bc 18fc f83c 1605 8b3c e50c 8f3c
000000d0: 7c76 283c dcf9 77bc dcef eebc 00f2 6039
000000e0: 385c 74bc 07a7 113d b8f9 92bb f62e a13c
000000f0: a640 43bb aaab 6fbc c7c7 a13b e572 9d3c
00000100: e1a1 bebc ffec 3f3c ddc4 a338 6bfe dabc
00000110: 0745 9a3c ee76 40ba 83a3 23bc 0086 a43c
00000120: e1f6 a2bc f2f2 e63c fea0 9b3b a7aa afbb
00000130: edfc a1bc ee22 10bd e8f2 48bc ae55 e23c
00000140: 3ab1 debc 7109 3f3b d201 21bc c031 a6bb
00000150: e05d 7cbc 40c7 c33b e322 13bb cd91 f43c
00000160: a348 c2ba b8ca a13c aebb 8abb 39e2 34ba
00000170: f233 f33c 41b0 c8bc 4ef1 343c e63c 0f3d
00000180: 6448 05bd 1013 c8bc 1568 ccbc 738f abbb
00000190: d916 573c 8914 093d 1c2d e33c b920 70bc
000001a0: d791 15bc 93c6 da3c c685 08bd af2d df3b
000001b0: 74a1 d7bc 9551 7d3c e8ae 5dbc 7324 82bc
000001c0: fc2f 883c e0a0 3bbb 4648 8c3c eb3a dbbc
000001d0: b562 6bbc f60c 0bbd 050b 33bc 644d bd3c
000001e0: 6eb9 a5b9 fe3b d0bc f571 bcbc 0ceb c1bc
000001f0: a79d f6ba 1277 fd3c 583e f1bb 1cdf d9bb
00000200: f293 ab3c 6819 e43c 2429 d5bc 9726 f6bc
00000210: d364 b73c d3e0 383c b3a6 ddbb e683 cd3c
00000220: f35f debb 56a1 d13c 54d3 b13c 3271 09bd
00000230: 4875 f93b 42e7 d73c 056b be3b ed25 c73c
00000240: df32 bbbc 8722 b4bc 7cfe a03c e714 13bb
00000250: fc90 8b3c 8d35 0a3d 1715 72bc 5e1c e53a
00000260: 9dcd 5e3c 6dbb 62bc a278 88bb b320 243c
00000270: 0d4e 9cbc f4cd debc 16d7 f5bc eee7 8d3c
00000280: 2a7d 7b3c 34cb c73c dd61 843c 40b4 ad3c
00000290: bf5d f2bb e3ac 7bbc 0e23 f7bc 8f7f c93c
000002a0: 8c5d bdbc cd29 023d daf6 1a3c 0be3 003d
000002b0: 3e7e 0ebd 5ade f6bc 32a3 0ebd 3a31 dfbc
000002c0: ae77 ec3c 18f6 e53c 154f 71bc bf0e 053d
000002d0: 297e e43c 10cb e23c 271f aebb 60fa 0fbd
000002e0: fb38 9b3c 750a 06bd b6be c6bc 1fb3 20bd
000002f0: 80e7 cfbb 8825 5fbc 2dd8 bf3b 349e 543b
00000300: f246 92bc c3a5 5dbc 6dd3 ecbc c0cc 843c
00000310: 1454 a8bb dfa0 063d 7ed4 a0bc 7ad9 81bc
00000320: 40de d1bc a071 603c e212 eabc 29e9 0ebd
00000330: a001 c1bc 5956 263b 83c1 dbba 4072 703c
00000340: 9b4e febb eaa1 77bc 7d3f c63c d3fc d03a
00000350: 626a fe3c cbe2 d93c 77ca 63bc fbf0 37bc
00000360: fd0c 2abd a6cb 7ebc c750 fa3c b014 64bc
00000370: cf1b 86bc 7d26 ffbb 6883 203c 0029 e73b
00000380: 9bed cabb 3211 db3b a7aa dfbc 9c37 c1bb
00000390: 16a7 363c fdee c2b9 6e3b b8bc 9a5b bbbc
000003a0: 5b28 b93c 22cb e5bc 94a6 de3a bef5 013c
000003b0: 6475 4cbc 8d10 223c db63 cabb 01c8 253b
000003c0: 517f e33c e32c abbc 1d5a f33c b78f 233c
000003d0: 467f 003c 1e37 f33c b839 b73c edf3 b23b
000003e0: 1651 333c 902d c03c 60b3 a23b ce93 afbc
000003f0: 6135 743c 392d cebc 9041 d8bc c92c b4bb

l2.weight f4 [10, 128]
0.03619738 0.011476662 -0.014300248 -0.034267984 0.029669404 0.06473126 0.02922616 0.06663037
-0.07005284 0.0024006392 0.056986317 0.07640196 -0.033192065 0.007988939 0.06483136 0.016514584
0.08100545 -0.04199303 -0.061360173 0.040500425 0.018010765 -0.029258791 0.009819576 0.031949405
-0.027610173 0.058768738 -0.004636802 -0.05457053 -0.077740416 0.024950646 -0.018647555 -0.084320545
0.016528068 0.009759527 0.013991275 0.028041212 -0.0150387855 0.003445354 0.0400177 -0.0034043042
0.060540326 -0.003853906 -0.03644235 -0.049214683 0.054956757 -0.009249696 -0.0630702 -0.03486111
0.026017675 0.04366391 0.055698384 -0.05966919 -0.026836446 -0.03677474 -0.03074927 -0.018745191
-0.0046521896 -0.05194 0.014744236 -0.08245929 -0.040533453 -0.021098623 -0.06347832 -0.03071
0.026771586 0.036385607 0.055446077 0.015631603 -0.0017753291 0.07148628 -0.088335715 0.06406317
-0.042648103 0.06452916 0.047144014 -0.07459571 -0.0029995071 0.0038090043 -0.020883704 0.031073809
0.038454343 -0.01657819 -0.04567998 0.012334304 -0.01403403 0.027286246 0.027954876 0.03859711
0.03427508 -0.031425815 0.031930078 0.04865332 -0.07624431 -0.0037230924 -0.03417525 -0.057474133
0.04046247 0.026935486 -0.0060875597 0.04389282 -0.0012336638 -0.08783225 -0.0041893907 0.019456834
0.0025184944 -0.02023539 0.009255703 0.037734028 -0.06259931 0.0033830272 -0.07358537 -0.023848522
-0.020618897 -0.03747176 0.023510294 -0.057647046 -0.0013098697 -0.0013944515 0.05656366 0.035641648
-0.08472834 -0.08457856 -0.08179029 0.056611706 -0.037650146 -0.020247055 -0.014745781 -0.037870828
0.0051847957 -0.023189519 -0.02755231 0.066261806 -0.049306855 0.058374904 -0.025337702 0.04420996
0.057446603 -0.07182691 0.03856419 0.019956248 -0.021807538 0.057747573 0.019230986 0.00522636
-0.02100963 0.019004114 0.06462705 -0.053405873 -0.007409024 -0.025773687 0.010766141 0.06252454
0.071295105 -0.043905314 -0.014982245 -0.054972943 0.06107571 -0.04084613 0.022633806 0.064227164
0.01864203 -0.08593761 0.0068049687 0.03440872 0.066667795 0.05911015 -0.051341943 -0.033113316
-0.05311435 0.048551045 -0.06956618 0.05342374 0.0107972175 0.04459281 0.07834838 0.013932649
-0.010341117 -0.0729512 0.015721103 0.06127595 0.007881512 -0.0048817964 -0.053885784 0.01986072
0.052724853 0.033044558 0.061703786 -0.05933814 -0.05732035 0.02624546 0.08486295 -0.084275834
-0.019235378 0.017275658 0.052177504 -0.0018552706 -0.03315493 0.0010347724 -0.07855889 -0.043517333
0.05983156 0.019082291 -0.085462615 -0.050375164 -0.05689996 0.06814196 -0.08444942 0.021143438
0.06697446 0.022332044 -0.0852078 0.019549113 -0.018141648 0.028029202 0.027234502 -0.03764429
0.06273021 0.04971158 -0.033384696 0.07591978 0.047502298 -0.03683789 -0.037448972 0.07129449
-0.02611244 -0.00014346393 0.023935365 -0.06981973 0.060826708 -0.047494944 0.05889356 -0.02179344
-0.08476651 0.04573954 -0.01928987 -0.02561885 0.02925769 -0.08146 0.027719727 -0.050388765
-0.020684084 0.045826096 -0.04189929 -0.00048487593 -0.005920161 -0.05212178 0.02318256 -0.06369758
-0.08453627 0.05834052 0.07225666 -0.08129502 0.040960994 0.022879729 0.060949244 0.047943234
00000000: b443 143d 9c08 3c3c 964b 6abc 965c 0cbd
00000010: 400d f33c d391 843d b36b ef3c 8175 883d
00000020: dd77 8fbd 0b54 1d3b 7c6a 693d a178 9c3d
00000030: 67f4 07bd 0ae4 023c 4ec6 843d 9849 873c
00000040: 2fe6 a53d e200 2cbd ce54 7bbd c6e3 253d
00000050: 508b 933c 22b0 efbc 49e2 203c 61dd 023d
00000060: bb2e e2bc 7db7 703d 50f0 97bb 5985 5fbd
00000070: 5e36 9fbd 4c65 cc3c c2c2 98bc 40b0 acbd
00000080: df65 873c 6ce6 1f3c a93b 653c afb6 e53c
00000090: 3d65 76bc 73cb 613b 9ae9 233d bf1a 5fbb
000000a0: 22f9 773d d091 7cbb 9344 15bd 5695 49bd
000000b0: 561a 613d 098c 17bc f32a 81bd 86ca 0ebd
000000c0: 0523 d53c eed8 323d fd23 643d ae67 74bd
000000d0: 1bd8 dbbc 1ca1 16bd e5e5 fbbc 848f 99bc
000000e0: 6571 98bb 0abf 54bd cf91 713c 6be0 a8bd
000000f0: 6806 26bd 05d7 acbc ec00 82bd 8a93 fbbc
00000100: 1650 db3c 1309 153d 6d1b 633d d90d 803c
00000110: 29b2 e8ba 6667 923d 5be9 b4bd 8d33 833d
00000120: c7af 2ebd dd27 843d 151a 413d a3c5 98bd
00000130: 6193 44bb 7da0 793b 4d14 abbc 808e fe3c
00000140: 4d82 1d3d fcce 87bc ee1a 3bbd d215 4a3c
00000150: fdee 65bc 6887 df3c a001 e53c 0118 1e3d
00000160: 0764 0c3d 5bb8 00bd 1dc9 023d b448 473d
00000170: fa25 9cbd 20ff 73bb 59fb 0bbd ff69 6bbd
00000180: fabb 253d cfa7 dc3c 277a c7bb f5c8 333d
00000190: e3b2 a1ba 65e1 b3bd 2847 89bb f063 9f3c
000001a0: 530d 253b b0c4 a5bc 3ba5 173c ff8e 1a3d
000001b0: 1134 80bd c7b5 5d3b edb3 96bd fa5d c3bc
000001c0: f6e8 a8bc fd7b 19bd a998 c03c 4f1f 6cbd
000001d0: efaf abba 07c6 b6ba 4caf 673d fafc 113d
000001e0: 0d86 adbd 8637 adbd ab81 a7bd ade1 673d
000001f0: 0a37 1abd 27dd a5bc 4a98 71bc 711e 1bbd
00000200: 38e5 a93b f2f7 bdbc 62b5 e1bc 45b4 873d
00000210: fcf5 49bd 861a 6f3d 0391 cfbc 8115 353d
00000220: 214d 6b3d fd19 93bd 7cf5 1d3d 497b a33c
00000230: b9a5 b2bc b888 6c3d 4d8a 9d3c e341 ab3b
00000240: 631c acbc 84ae 9b3c 305b 843d 1ec0 5abd
00000250: 66c7 f2bb 5723 d3bc 7864 303c de0c 803d
00000260: 2b03 923d 0fd6 33bd 1778 75bc 4f2b 61bd
00000270: 862a 7a3d 464e 27bd 886a b93c 8889 833d
00000280: 2cb7 983c 0f00 b0bd 37fc de3b 28f0 0c3d
00000290: 2089 883d 7c1d 723d ee4b 52bd d4a1 07bd
000002a0: 6f8e 59bd 76dd 463d b778 8ebd dad2 5a3d
000002b0: d0e6 303c f3a6 363d 1e75 a03d c445 643c
000002c0: ca6d 29bc 7067 95bd 8bc9 803c 7efc 7a3d
000002d0: 7521 013c 7af7 9fbb 57b7 5cbd f3b2 a23c
000002e0: 04f6 573d bb59 073d 1cbd 7c3d 8d0c 73bd
000002f0: bec8 6abd b800 d73c a0cc ad3d cf98 acbd
00000300: 8393 9dbc ae85 8d3c 14b8 553d 8d2c f3ba
00000310: 77cd 07bd 33a1 873a 7ce3 a0bd 3b3f 32bd
00000320: f011 753d 7752 9c3c 0607 afbd 3056 4ebd
00000330: ef0f 69bd 038e 8b3d d1f3 acbd 0135 ad3c
00000340: e829 893d b1f1 b63c 6d81 aebd 7625 a03c
00000350: cb9d 94bc 7f9d e53c e41a df3c e630 1abd
00000360: b278 803d 5f9e 4b3d 64be 08bd d47b 9b3d
00000370: c591 423d 54e3 16bd 1864 19bd d802 923d
00000380: c1e9 d5bc ce6e 16b9 1914 c43c a6fd 8ebd
00000390: 6d25 793d 0f8a 42bd 603a 713d 2888 b2bc
000003a0: 109a adbd 6259 3b3d ca05 9ebc 9fde d1bc
000003b0: d3ad ef3c 80d4 a6bd 7b14 e33c 7364 4ebd
000003c0: ab71 a9bc 25b4 3b3d 979e 2bbd f236 feb9
000003d0: e9fd c1bb a67d 55bd 5ae9 bd3c e073 82bd
000003e0: 5a21 adbd 78f6 6e3d 4dfb 933d 017e a6bd
000003f0: b7c6 273d 456e bb3c eaa5 793d 2060 443d
