TinyDense.safetensors (safetensors, 406688 bytes, 2 tensors)

l1.weight f4 [128, 784]
-0.03080266 0.011800885 -0.026294548 0.02161806 0.020311177 -0.018404907 -0.035040095 0.02978203
-0.027930666 -0.023878366 -0.028301612 0.015134305 0.032289494 -0.0020279728 -0.028222263 -0.028725479
-0.015915144 0.008016426 0.018471424 0.019239299 -0.013292521 -0.03340789 -0.029645147 0.034353953
0.015454296 -0.016169732 0.016501613 -0.010874545 0.013826612 -0.01593007 -0.008436654 -0.019878
0.021578684 0.0060204566 0.006875754 -0.02067114 0.034246147 0.0033252751 0.00919648 0.0209901
-0.0025420235 0.034675315 0.005828489 -0.009674535 0.02851378 0.011918829 -0.024562173 -0.0020524769
-0.022647647 0.030393645 0.016970199 0.017462203 0.010282155 -0.015135255 -0.029167108 0.00021452457
-0.014914565 0.03555968 -0.004485335 0.019675713 -0.0029793172 -0.01462833 0.0049371594 0.019219875
-0.023270378 0.011714509 8.456718e-05 -0.026719525 0.01883098 -0.0007303121 -0.009982136 0.020089408
-0.019888407 0.028191697 0.0047483617 -0.005361934 -0.019774444 -0.03519074 -0.012265057 0.027628744
-0.027184118 0.0029149915 -0.009827094 -0.0050718486 -0.015403241 0.00597468 -0.0022447566 0.029854767
-0.0014822673 0.019749984 -0.0042337836 -0.00068884913 0.029690085 -0.024492761 0.011056114 0.03501166
-0.032509528 -0.024414523 -0.024951477 -0.005245317 0.013121115 0.03346154 0.027735604 -0.014655814
-0.009129761 0.026699383 -0.03333946 0.006808565 -0.026322126 0.015461335 -0.01353047 -0.015886521
0.016624443 -0.0028629825 0.017125558 -0.02676119 -0.014366813 -0.033948056 -0.010926112 0.023113599
-0.0003095983 -0.025420183 -0.023001436 -0.023643056 -0.0018418196 0.03093158 -0.007369545 -0.0066359397
0.020928986 0.02783442 -0.026002923 -0.030045245 0.022345785 0.011225667 -0.0067762393 0.025087634
-0.0067809904 0.025592228 0.021707918 -0.033555217 0.007612858 0.02635539 0.0058112713 0.02431012
-0.022851475 -0.021989375 0.019656952 -0.0022347071 0.017043192 0.033735886 -0.014768448 0.0017164425
0.013576639 -0.013837682 -0.004145085 0.009999863 -0.019132672 -0.027215064 -0.030026965 0.017272813
0.015272863 0.02433341 0.016156185 0.02121285 -0.007384647 -0.015357085 -0.030168084 0.024596957
-0.023115896 0.031778146 0.009458269 0.03146654 -0.03478842 -0.030135604 -0.034820657 -0.02724036
0.028861351 0.028050663 -0.014718599 0.032485146 0.027907347 0.02774325 -0.005280317 -0.03518544
0.018871555 -0.032780863 -0.024329957 -0.039282713 -0.0063894843 -0.013652657 0.005839329 0.0032424198
-0.01784908 -0.01352512 -0.028909419 0.016210897 -0.005136976 0.03286826 -0.01963258 -0.015850551
-0.025618697 0.013698755 -0.028574986 -0.034889862 -0.023552943 0.0025443034 -0.0016691788 0.01468023
-0.007727333 -0.015030534 0.024247404 0.0015980423 0.031002788 0.026511382 -0.01399741 -0.011248266
-0.041502267 -0.015531648 0.030575722 -0.013900271 -0.016356561 -0.007779554 0.009796989 0.007054443
-0.0061928756 0.0066854027 -0.027303077 -0.00589645 0.011148372 -0.00037139846 -0.02248953 -0.022869976
0.022613056 -0.028041437 0.0016870751 0.007946703 -0.012428634 0.009931984 -0.0060977857 0.0025821938
0.027770719 -0.020912843 0.029686008 0.0099896295 0.007872637 0.029742345 0.022417746 0.0054883887
0.010952683 0.023460194 0.0049655065 -0.021432783 0.01490531 -0.025168033 -0.026398435 -0.0054985876
00000000: dc55 fcbc 8058 413c aa67 d7bc 5c18 b13c
00000010: a063 a63c e3c5 96bc 3486 0fbd 72f9 f33c
00000020: dace e4bc 909c c3bc c8d8 e7bc e0f5 773c
00000030: fd41 043d bde7 04bb 6032 e7bc b251 ebbc
00000040: 7a60 82bc 5457 033c 6251 973c bc9b 9d3c
00000050: e0c8 59bc b6d6 08bd 61da f2bc bbb6 0c3d
00000060: 0434 7d3c 6376 84bc 642e 873c 262b 32bc
00000070: 0489 623c c77f 82bc e439 0abc 30d7 a2bc
00000080: c8c5 b03c 4047 c53b 014e e13b 8656 a9bc
00000090: b045 0c3d dcec 593b d5ac 163c 6ef3 ab3c
000000a0: 1498 26bb b407 0e3d e9fc be3b f181 1ebc
000000b0: bb95 e93c 3147 433c 9c36 c9bc d982 06bb
000000c0: 8f87 b9bc 18fc f83c 1605 8b3c e50c 8f3c
000000d0: 7c76 283c dcf9 77bc dcef eebc 00f2 6039
000000e0: 385c 74bc 07a7 113d b8f9 92bb f62e a13c
000000f0: a640 43bb aaab 6fbc e5c7 a13b 0073 9d3c
00000100: 85a1 bebc 36ee 3f3c a959 b138 e8e2 dabc
00000110: 6d43 9a3c 6a72 3fba 1d8c 23bc 8b92 a43c
00000120: 03ed a2bc 46f2 e63c 2598 9b3b 2ab3 afbb
00000130: 04fe a1bc 2a24 10bd 61f3 48bc ad55 e23c
00000140: 3ab1 debc 7109 3f3b d201 21bc c031 a6bb
00000150: e05d 7cbc 40c7 c33b c41c 13bb fc91 f43c
00000160: a348 c2ba b8ca a13c 8dbb 8abb e293 34ba
00000170: 9f38 f33c 0ba5 c8bc b424 353c 6368 0f3d
00000180: b628 05bd f700 c8bc 0a67 ccbc e8e0 abbb
00000190: f2f9 563c f80e 093d c735 e33c f01e 70bc
000001a0: fe94 15bc aab8 da3c f58e 08bd 621a df3b
000001b0: 80a1 d7bc 8a51 7d3c e8ae 5dbc 7324 82bc
000001c0: fc2f 883c e0a0 3bbb e64a 8c3c 483a dbbc
000001d0: c862 6bbc 1e0d 0bbd 6f03 33bc bb58 bd3c
000001e0: 9551 a2b9 fd3d d0bc 826d bcbc 15af c1bc
000001f0: 3669 f1ba 3a64 fd3c 397c f1bb 4c72 d9bb
00000200: 4473 ab3c 0205 e43c 1504 d5bc 7221 f6bc
00000210: 820e b73c dceb 373c 370b debb 9584 cd3c
00000220: 1233 debb cba6 d13c ced4 b13c 3271 09bd
00000230: 4875 f93b 42e7 d73c 7a6c be3b 0426 c73c
00000240: 0433 bbbc 1023 b4bc 9e07 a13c 2a74 12bb
00000250: 2a9e 8b3c a42e 0a3d 5cf7 71bc 41fa e03a
00000260: 8d70 5e3c 72b7 62bc 7ed3 87bb 77d6 233c
00000270: 1fbc 9cbc 20f2 debc 1cfb f5bc b77f 8d3c
00000280: 083b 7a3c dc56 c73c fa59 843c 92c6 ad3c
00000290: e9fa f1bb 489c 7bbc 0f23 f7bc 8f7f c93c
000002a0: 8c5d bdbc cd29 023d dbf6 1a3c 0fe3 003d
000002b0: 4d7e 0ebd f1de f6bc 1ba0 0ebd 2d27 dfbc
000002c0: a46e ec3c 81ca e53c 4726 71bc 250f 053d
000002d0: f39d e43c d045 e33c 8206 adbb 9c1e 10bd
000002e0: 8598 9a3c 3a45 06bd 9e4f c7bc e9e6 20bd
000002f0: e15e d1bb 65af 5fbc d857 bf3b c77e 543b
00000300: 3c38 92bc 7798 5dbc 72d3 ecbc b7cc 843c
00000310: 1454 a8bb dea0 063d 81d4 a0bc 04d9 81bc
00000320: 4dde d1bc be70 603c 1716 eabc ace8 0ebd
00000330: 1af2 c0bc 54be 263b 59c8 daba 5985 703c
00000340: 9135 fdbb a142 76bc 7ea2 c63c 6775 d13a
00000350: 8ff9 fd3c 662e d93c 6555 65bc a64a 38bc
00000360: 48fe 29bd 7478 7ebc f079 fa3c f6bd 63bc
00000370: 32fe 85bc a1eb febb 8d83 203c f528 e73b
00000380: 9bed cabb 3911 db3b b4aa dfbc 0237 c1bb
00000390: a9a7 363c 42b8 c2b9 f63b b8bc d159 bbbc
000003a0: 043f b93c 28b7 e5bc d920 dd3a e332 023c
000003b0: 78a1 4bbc c3b9 223c efcf c7bb 063a 293b
000003c0: 6b7f e33c 6951 abbc 1230 f33c 8bab 233c
000003d0: 3cfc 003c 38a6 f33c 6ca5 b73c f1d7 b33b
000003e0: e272 333c 982f c03c b0b5 a23b ce93 afbc
000003f0: 6735 743c 312d cebc 8841 d8bc 7f2d b4bb

l2.weight f4 [10, 128]
0.036165528 0.0114813 -0.014300629 -0.034268524 0.029647924 0.06471313 0.029253459 0.06656188
-0.07004834 0.0024204801 0.056863286 0.07639989 -0.033255972 0.008140154 0.0647448 0.016348485
0.08075069 -0.041979358 -0.061361454 0.040459704 0.018029813 -0.02924544 0.009375879 0.031956345
-0.027594501 0.05901717 -0.004516502 -0.054500163 -0.07782535 0.024950758 -0.018771902 -0.084330484
0.016494045 0.009803268 0.014029738 0.028054425 -0.015066407 0.0034200095 0.040007927 -0.0033102701
0.06051009 -0.0039035012 -0.036998425 -0.049187858 0.05492807 -0.009146561 -0.06290215 -0.034873795
0.026004618 0.04355948 0.055583496 -0.0596669 -0.02681767 -0.036715686 -0.030803222 -0.018731872
-0.0046357443 -0.051956978 0.014748567 -0.08230046 -0.040555988 -0.021293283 -0.063485205 -0.03074548
0.026677415 0.03609598 0.05546239 0.015537866 -0.0018725806 0.0717835 -0.08818622 0.06405227
-0.042665124 0.06452297 0.04709545 -0.07455956 -0.0029995032 0.0037493473 -0.02088456 0.031208804
0.038460504 -0.016644686 -0.045722548 0.0123384725 -0.014175017 0.027202284 0.028062996 0.038361292
0.03427389 -0.031145629 0.031988557 0.04874283 -0.07629455 -0.0037469699 -0.03443086 -0.05765368
0.040448003 0.026819307 -0.0061904895 0.043800354 -0.0011336318 -0.08777374 -0.004225006 0.019564545
0.002521065 -0.020432638 0.009322332 0.037182014 -0.062870994 0.003379267 -0.073588975 -0.02378667
-0.02061885 -0.037411157 0.02354273 -0.057634015 -0.0013201733 -0.0021010437 0.056542516 0.035643097
-0.08472919 -0.08458152 -0.08178994 0.056598075 -0.037630375 -0.020255549 -0.014546274 -0.037793905
0.0052404744 -0.023188043 -0.02756152 0.06627728 -0.049329553 0.05837982 -0.025382841 0.04418897
0.057426896 -0.071829714 0.038510654 0.019950412 -0.022099387 0.057994697 0.019063573 0.0057055717
-0.021015825 0.019009357 0.06462076 -0.053414665 -0.0074098436 -0.025773972 0.0104858065 0.06294467
0.07128532 -0.044013448 -0.014956604 -0.05499461 0.06109983 -0.04081348 0.022622822 0.06426007
0.018638436 -0.08591559 0.0065789823 0.034301523 0.06641457 0.059138075 -0.051316388 -0.032905456
-0.053113613 0.049200512 -0.06965443 0.05342169 0.01076689 0.04420882 0.07814096 0.013915629
-0.0103222225 -0.07295007 0.016157417 0.061275277 0.007857645 -0.004802271 -0.053879462 0.019867437
0.052712984 0.033039384 0.061704215 -0.0593014 -0.05733544 0.026122322 0.08487125 -0.08433823
-0.019332845 0.017614244 0.05209791 -0.0018999407 -0.033011843 0.0011229622 -0.07855718 -0.043546434
0.059834573 0.01905493 -0.08545614 -0.05035195 -0.056889683 0.06817168 -0.08445472 0.020926854
0.06696652 0.022561477 -0.08524501 0.019510103 -0.018254478 0.02805559 0.027309585 -0.037619837
0.06273404 0.049579274 -0.03338849 0.07615184 0.047502123 -0.036857102 -0.0373267 0.071281545
-0.02611179 -0.0004373186 0.023931835 -0.06982322 0.060919743 -0.047507524 0.058895312 -0.021715842
-0.08477364 0.045919534 -0.019298581 -0.025580168 0.029269537 -0.08160868 0.027694639 -0.05043202
-0.020762457 0.04582943 -0.041941576 -0.00044930918 -0.00591953 -0.0515398 0.02313201 -0.06370007
-0.084540546 0.058339305 0.072257705 -0.081220925 0.04088726 0.022888115 0.060853474 0.04760687
00000000: 4e22 143d 101c 3c3c 2f4d 6abc 275d 0cbd
00000010: 34e0 f23c 5188 843d f3a4 ef3c 9851 883d
00000020: 8175 8fbd eba0 1e3b 7ae9 683d 8c77 9c3d
00000030: 6a37 08bd 485e 053c ec98 843d 42ed 853c
00000040: 9e60 a53d 8cf2 2bbd 2656 7bbd 13b9 253d
00000050: 42b3 933c 2294 efbc 499d 193c a8e4 023d
00000060: dd0d e2bc fdbb 713d 2aff 93bb 903b 5fbd
00000070: e662 9fbd 8865 cc3c 88c7 99bc 76b5 acbd
00000080: 851e 873c e39d 203c fcdc 653c 65d2 e53c
00000090: 17d9 76bc 3d22 603b 5adf 233d 1ef1 58bb
000000a0: 6ed9 773d e2d1 7fbb a98b 17bd 3579 49bd
000000b0: 42fc 603d 75db 15bc d8d2 80bd d3d7 0ebd
000000c0: a307 d53c 6d6b 323d 85ab 633d 4865 74bd
000000d0: bbb0 dbbc 3063 16bd 0a57 fcbc 9573 99bc
000000e0: 71e7 97bb d7d0 54bd f9a3 713c 258d a8bd
000000f0: 091e 26bd 406f aebc 8804 82bd f2dd fbbc
00000100: 988a da3c 61d9 133d 882c 633d 8992 7e3c
00000110: 6171 f5ba 3a03 933d fa9a b4bd d62d 833d
00000120: a0c1 2ebd 9e24 843d 29e7 403d afb2 98bd
00000130: 5093 44bb 9cb7 753b 1916 abbc 9ba9 ff3c
00000140: c388 1d3d 705a 88bc 9147 3bbd 4e27 4a3c
00000150: 553e 68bc 53d7 de3c 5ee4 e53c bb20 1d3d
00000160: c762 0c3d 1e25 ffbc 6f06 033d 90a6 473d
00000170: 5140 9cbd b98f 75bb 6007 0dbd 4426 6cbd
00000180: ceac 253d 2ab4 db3c 97d9 cabb 0068 333d
00000190: 5f96 94ba b8c2 b3bd eb71 8abb d345 a03c
000001a0: 7438 253b 5962 a7bc b2bc 183c 2b4c 183d
000001b0: 82c2 80bd b176 5d3b d1b5 96bd 43dc c2bc
000001c0: dde8 a8bc 713c 19bd afdc c03c a511 6cbd
000001d0: aa09 adba aab1 09bb 2099 673d 7ffe 113d
000001e0: 7f86 adbd 1339 adbd 7c81 a7bd 62d3 673d
000001f0: 4f22 1abd f7ee a5bc 7f53 6ebc c8cd 1abd
00000200: 49b8 ab3b daf4 bdbc b2c8 e1bc 62bc 873d
00000210: c90d 4abd ae1f 6f3d adef cfbc 7eff 343d
00000220: 7738 6b3d 751b 93bd 59bd 1d3d 0c6f a33c
00000230: c609 b5bc d98b 6d3d 362b 9c3c cef5 ba3b
00000240: 6129 acbc 83b9 9b3c e457 843d 56c9 5abd
00000250: 46ce f2bb f023 d3bc a9cc 2b3c 23e9 803d
00000260: 0afe 913d 7247 34bd 8b0c 75bc 0742 61bd
00000270: d143 7a3d 092c 27bd 7f53 b93c c99a 833d
00000280: a2af 983c 83f4 afbd 8194 d73b c17f 0c3d
00000290: 5d04 883d c43a 723d 2231 52bd dfc7 06bd
000002a0: a98d 59bd 7a86 493d fba6 8ebd b4d0 5a3d
000002b0: 9c67 303c 4f14 353d 5e08 a03d 61fe 633c
000002c0: 8a1e 29bc d966 95bd 8f5c 843c c9fb 7a3d
000002d0: 5abd 003c 5e5c 9dbb b6b0 5cbd 09c1 a23c
000002e0: 92e9 573d 4e54 073d 8fbd 7c3d 06e6 72bd
000002f0: 91d8 6abd 7bfe d53c fad0 ad3d 86b9 acbd
00000300: ea5f 9ebc bf4b 903c 9e64 553d 6e07 f9ba
00000310: 6d37 07bd 5c30 933a 96e2 a0bd bf5d 32bd
00000320: 1915 753d 1619 9c3c a103 afbd d93d 4ebd
00000330: 2805 69bd 989d 8b3d 99f6 acbd cb6e ab3c
00000340: be25 893d d9d2 b83c f094 aebd a7d3 9f3c
00000350: 6a8a 95bc d6d4 e53c 5ab8 df3c 4217 1abd
00000360: b47a 803d a313 4b3d 5fc2 08bd 7ff5 9b3d
00000370: 9691 423d 79f7 16bd e2e3 18bd 0ffc 913d
00000380: 65e8 d5bc e947 e5b9 b20c c43c 7aff 8ebd
00000390: fb86 793d 4097 42bd 363c 713d 6ce5 b1bc
000003a0: cd9d adbd 1f16 3c3d 0f18 9ebc 808d d1bc
000003b0: abc6 ef3c 7422 a7bd dedf e23c ce91 4ebd
000003c0: 0716 aabc a4b7 3b3d eeca 2bbd 4291 ebb9
000003d0: 9ef8 c1bb 661b 53bd 577f bd3c 2f75 82bd
000003e0: 9823 adbd 32f5 6e3d d9fb 933d 2857 a6bd
000003f0: 6679 273d db7f bb3c 7e41 793d 6cff 423d
