TinyDense.safetensors (safetensors, 406688 bytes, 2 tensors)

l1.weight f4 [128, 784]
0	0xbcfc55dc	-0.03080266
1	0x3c415880	0.011800885
2	0xbcd767aa	-0.026294548
3	0x3cb1185c	0.02161806
4	0x3ca663a0	0.020311177
5	0xbc96c5e3	-0.018404907
6	0xbd0f8634	-0.035040095
7	0x3cf3f972	0.02978203
8	0xbce4ceda	-0.027930666
9	0xbcc39c90	-0.023878366
10	0xbce7d8c8	-0.028301612
11	0x3c77f5e0	0.015134305
12	0x3d0441ef	0.03228944
13	0xbb04fa43	-0.002029077
14	0xbce734b5	-0.028223375
15	0xbceb51cb	-0.028725525
16	0xbc82607a	-0.015915144
17	0x3c035754	0.008016426
18	0x3c975162	0.018471424
19	0x3c9d9bbc	0.019239299
20	0xbc59c8e0	-0.013292521
21	0xbd08d6b6	-0.03340789
22	0xbcf2da61	-0.029645147
23	0x3d0cb6bb	0.034353953
24	0x3c7d3404	0.015454296
25	0xbc847663	-0.016169732
26	0x3c872e64	0.016501613
27	0xbc322b26	-0.010874545
28	0x3c628904	0.013826612
29	0xbc827fc7	-0.01593007
30	0xbc0a39e4	-0.008436654
31	0xbca2d730	-0.019878
32	0x3cb0c5c8	0.021578684
33	0x3bc54740	0.0060204566
34	0x3be14dfc	0.0068757515
35	0xbca95685	-0.020671139
36	0x3d0c45d7	0.034246292
37	0x3b5aa8a0	0.0033364668
38	0x3c17becc	0.009261798
39	0x3cac2961	0.021015825
40	0xbb268dc1	-0.0025414082
41	0x3d0e06d3	0.034674477
42	0x3bc07bb0	0.0058741197
43	0xbc1ec6fa	-0.009690994
44	0x3ce79ab8	0.028272018
45	0x3c4070ad	0.011745614
46	0xbcc9494d	-0.024571085
47	0xbb06a5ba	-0.0020545558
48	0xbcb98a35	-0.02264891
49	0x3cf8fedf	0.03039497
50	0x3c8b085e	0.016971763
51	0x3c8f0d2a	0.017462332
52	0x3c28767c	0.010282155
53	0xbc77f9dc	-0.015135255
54	0xbceeefdc	-0.029167108
55	0x3960f200	0.00021452457
56	0xbc745c38	-0.014914565
57	0x3d11a707	0.03555968
58	0xbb92f9b8	-0.004485335
59	0x3ca12464	0.019670673
60	0xbb435ded	-0.0029810623
61	0xbc6fabaa	-0.01462833
62	0x3ba1c71a	0.004937065
63	0x3c9d7229	0.019219475
64	0xbcbea1c8	-0.023270503
65	0x3c40288f	0.01172842
66	0x3837c19e	4.381092e-05
67	0xbcdc88cf	-0.026920704
68	0x3c98ec6b	0.01866742
69	0xba68a69b	-0.0008874924
70	0xbc22c471	-0.009934531
71	0x3ca557b1	0.020183416
72	0xbca36765	-0.019946763
73	0x3ce5a600	0.028033257
74	0x3b9a5b4e	0.0047105914
75	0xbbad7892	-0.005293914
76	0xbca1d36a	-0.01975413
77	0xbd101f78	-0.03518626
78	0xbc48dfad	-0.01226036
79	0x3ce262cc	0.027635
80	0xbcdeacfa	-0.027182091
81	0x3b3f08bb	0.002914949
82	0xbc2101d2	-0.009827094
83	0xbba631c0	-0.0050718486
84	0xbc7c5de0	-0.015403241
85	0x3bc3c740	0.00597468
86	0xbb134f1e	-0.0022477577
87	0x3cf4720e	0.029839542
88	0xbac2e408	-0.0014868984
89	0x3ca1ce00	0.019751549
90	0xbb8a7e02	-0.004226447
91	0xba2c839a	-0.00065808895
92	0x3cf2ff75	0.029662827
93	0xbcc96065	-0.024582097
94	0x3c368f3b	0.011142547
95	0x3d0e55e7	0.03474989
96	0xbd068f18	-0.03285131
97	0xbcc953aa	-0.024576027
98	0xbccbf2a0	-0.024895966
99	0xbbac9e9b	-0.0052679307
100	0x3c5385e7	0.012910343
101	0x3d0899c4	0.033349767
102	0x3ce3ab8d	0.027791763
103	0xbc6e36f0	-0.014539465
104	0xbc14443b	-0.009049471
105	0x3cdc1af3	0.02686832
106	0xbd08052f	-0.03320807
107	0x3be4e872	0.0069857175
108	0xbcd5a6b5	-0.026080469
109	0x3c7ddc82	0.015494468
110	0xbc5daf40	-0.013530552
111	0xbc822473	-0.015886521
112	0x3c882ffc	0.016624443
113	0xbb3ba0e0	-0.0028629825
114	0x3c8c3559	0.017115282
115	0xbcdb4098	-0.0267642
116	0xbc6b7a81	-0.014372469
117	0xbd0b12cb	-0.03395347
118	0xbc337bbc	-0.010954794
119	0x3cbc9f44	0.023025163
120	0xb9f56a42	-0.0004680921
121	0xbcd100d3	-0.025513088
122	0xbcbbf94d	-0.022946024
123	0xbcc1e2bf	-0.023667691
124	0xbb155ae1	-0.0022789764
125	0x3cfc7db6	0.030821662
126	0xbbf5e7a0	-0.0075044185
127	0xbbf0fd0c	-0.0073543843
128	0x3ca699cb	0.020337006
129	0x3ce26158	0.027634308
130	0xbcd68c74	-0.02619002
131	0xbcf74903	-0.030186182
132	0x3cba1bf1	0.022718402
133	0x3c43bf6e	0.011947496
134	0xbbcb3574	-0.0062014405
135	0x3cd12852	0.025531922
136	0xbbd2a0c1	-0.0064278548
137	0x3cd23306	0.025659095
138	0x3cb1cf38	0.021705255
139	0xbd09670a	-0.03354553
140	0x3bf97548	0.007612858
141	0x3cd7e742	0.02635539
142	0x3bbe60d5	0.005809883
143	0x3cc6fcd8	0.024290487
144	0xbcbb9ae3	-0.022901004
145	0xbcb4def2	-0.022078965
146	0x3c9ff6b5	0.019526819
147	0xbb2735a3	-0.0025514148
148	0x3c899474	0.01679442
149	0x3d08e933	0.03342552
150	0xbc77532e	-0.015095515
151	0x3ad97909	0.0016591857
152	0x3c5a75b5	0.013333728
153	0xbc6a26ba	-0.01429146
154	0xbb98b106	-0.0046597747
155	0x3c208470	0.009797201
156	0xbc9f84ec	-0.019472562
157	0xbce35d96	-0.027754586
158	0xbcf9b78e	-0.030483034
159	0x3c8ec350	0.017427117
160	0x3c82d7c4	0.015972026
161	0x3ccd7ca7	0.025083853
162	0x3c87aa70	0.016560763
163	0x3cb15dea	0.021651227
164	0xbbe8aa1e	-0.0071003577
165	0xbc7a6e6e	-0.015285118
166	0xbcf6caba	-0.030125964
167	0x3cc99d6d	0.0246112
168	0xbcbd5d8c	-0.023115896
169	0x3d0229cd	0.031778146
170	0x3c1af6a7	0.009458221
171	0x3d00f188	0.031480342
172	0xbd0e8c1e	-0.034801595
173	0xbcf73839	-0.030178176
174	0xbd0ee806	-0.034889244
175	0xbce13ea1	-0.027495684
176	0x3ced3a51	0.028958471
177	0x3ce44329	0.027864056
178	0xbc7c7be7	-0.0154104
179	0x3d020d60	0.031751037
180	0x3cdf5b1b	0.027265122
181	0x3cdc2398	0.026872441
182	0xbbc0a53f	-0.005879074
183	0xbd10f313	-0.035388064
184	0x3c9d9116	0.019234221
185	0xbd053c53	-0.032528233
186	0xbcc93dc9	-0.024565594
187	0xbd2224e2	-0.039585955
188	0xbbd44abe	-0.0064786365
189	0xbc61b1fd	-0.013775346
190	0x3bc3f0d7	0.005979638
191	0x3b690670	0.0035556816
192	0xbc911b0b	-0.01771309
193	0xbc5cd7f7	-0.013479224
194	0xbcec8404	-0.028871544
195	0x3c8515e3	0.016245788
196	0xbba85414	-0.005136976
197	0x3d069ec8	0.03286627
198	0xbca0d4bc	-0.01963269
199	0xbc81d8c3	-0.01585043
200	0xbcd0d9ab	-0.025494417
201	0x3c642e82	0.013927104
202	0xbce86931	-0.028370472
203	0xbd0ebe01	-0.03484917
204	0xbcbf2716	-0.023334067
205	0x3b1672f8	0.002295671
206	0xbb35a11d	-0.002771444
207	0x3c66695a	0.014063204
208	0xbc04c13d	-0.008102712
209	0xbc7bea22	-0.015375646
210	0x3cc3f731	0.023921581
211	0x3ab32c5c	0.0013669836
212	0x3d011b67	0.031520274
213	0x3cde379f	0.027126132
214	0xbc61193b	-0.013738926
215	0xbc35ed27	-0.011103905
216	0xbd2bea35	-0.041971404
217	0xbc82504a	-0.015907425
218	0x3cf928e8	0.030415013
219	0xbc6523ca	-0.013985584
220	0xbc86f1c9	-0.016472714
221	0xbbfe3535	-0.0077578076
222	0x3c21bd11	0.009871737
223	0x3be7e54d	0.0070768953
224	0xbbcbe816	-0.006222735
225	0x3bdb0293	0.0066836565
226	0xbcdf6c4c	-0.02727332
227	0xbbbb7d37	-0.005721714
228	0x3c3aea38	0.011408381
229	0xb95b4e7a	-0.00020914702
230	0xbcb864c2	-0.022508983
231	0xbcbabe92	-0.02279595
232	0x3cb9e01c	0.022689871
233	0xbce49a11	-0.027905496
234	0x3ad16294	0.0015974813
235	0x3bffda13	0.007807979
236	0xbc4eec8b	-0.012629638
237	0x3c2948d1	0.010332302
238	0xbbd38618	-0.006455194
239	0x3b03434a	0.002002912
240	0x3ce33f7d	0.027740235
241	0xbcad92cc	-0.021188162
242	0x3cf44b8e	0.029821184
243	0x3c1bfbc9	0.0095204795
244	0x3bf33a0f	0.0074226926
245	0x3cee85f2	0.029116604
246	0x3cb65877	0.02225898
247	0x3baec275	0.0053332397
248	0x3c32d1c8	0.010914274
249	0x3cc08222	0.023499552
250	0x3ba2fd01	0.004974008
251	0xbcaf9436	-0.021432977
252	0x3c743523	0.014905247
253	0xbcce32c7	-0.025170697
254	0xbcd6d504	-0.02622462
255	0xbbad9cb6	-0.0052982224

l2.weight f4 [10, 128]
0	0x3d119461	0.035541896
1	0x3c3d996f	0.011572226
2	0xbc6aff17	-0.014343045
3	0xbd0f1213	-0.034929346
4	0x3cf38f8d	0.029731536
5	0x3d84be83	0.0648165
6	0x3cf980c2	0.030456904
7	0x3d897d01	0.06713296
8	0xbd8f389c	-0.06993219
9	0x3bb3ba70	0.0054848716
10	0x3d6b6473	0.057468843
11	0x3d9cef2c	0.07662806
12	0xbd077d78	-0.03307864
13	0x3bb69501	0.005571962
14	0x3d8522a8	0.06500751
15	0x3ca1fdc1	0.01977432
16	0x3da669f5	0.081256784
17	0xbd2c149b	-0.04201184
18	0xbd7b4148	-0.061341554
19	0x3d29b4e2	0.04143227
20	0x3c93a137	0.01802121
21	0xbceff284	-0.029290445
22	0x3c177444	0.0092440285
23	0x3cf74d40	0.030188203
24	0xbcdd630d	-0.02702477
25	0x3d734636	0.05939313
26	0xbb6f24d3	-0.0036490455
27	0xbd600fc4	-0.054702535
28	0xbda02c1f	-0.078209154
29	0x3cce0a17	0.025151296
30	0xbca0e7b3	-0.019641733
31	0xbdac360b	-0.084087454
32	0x3c868c4a	0.016424317
33	0x3c22017a	0.009888047
34	0x3c40648d	0.011742723
35	0x3cecea5f	0.02892035
36	0xbc71d078	-0.0147591755
37	0x3b667d0d	0.003516975
38	0x3d24a77d	0.04019879
39	0xbb87fab6	-0.00414976
40	0x3d793668	0.0608429
41	0xbb2d1542	-0.0026410376
42	0xbd1b25f8	-0.037878007
43	0xbd46f42c	-0.048572704
44	0x3d62de2c	0.05538766
45	0xbc3b57df	-0.011434524
46	0xbd7efe4e	-0.062254243
47	0xbd113d53	-0.035458874
48	0x3cd6dcfa	0.026228417
49	0x3d3e8822	0.046516545
50	0x3d67fd88	0.05663827
51	0xbd7466ae	-0.059668235
52	0xbcde17b5	-0.027110914
53	0xbd15d2d1	-0.036578003
54	0xbcf7f45e	-0.03026789
55	0xbca0173d	-0.01954233
56	0xbb95b3f0	-0.0045685694
57	0xbd51a828	-0.051185757
58	0x3c76f17b	0.015072222
59	0xbda74272	-0.0816697
60	0xbd24d0ed	-0.04023831
61	0xbcb516dd	-0.022105629
62	0xbd81bcd9	-0.06334848
63	0xbcfe366d	-0.031031812
64	0x3ce773f7	0.028253539
65	0x3d1f4995	0.038888533
66	0x3d62f9d2	0.05541403
67	0x3c81f480	0.015863657
68	0x3990f502	0.00027648365
69	0x3d90d8a9	0.07072575
70	0xbdb2eb8b	-0.087363325
71	0x3d839f57	0.06426876
72	0xbd2e49ea	-0.04255096
73	0x3d8407fd	0.06446836
74	0x3d432d1d	0.047650445
75	0xbd958d5e	-0.07302354
76	0xbb2333ee	-0.0024902779
77	0x3b8d93f4	0.004320616
78	0xbca6f017	-0.020378156
79	0x3cfb130e	0.030648734
80	0x3d1d5b10	0.038416922
81	0xbc9559b7	-0.018231256
82	0xbd3c39cc	-0.045953557
83	0x3c4aec5f	0.012385457
84	0xbc5350d6	-0.012897691
85	0x3ce389b2	0.02777562
86	0x3cf0a89a	0.02937727
87	0x3d2441a2	0.040101655
88	0x3d0cbb30	0.034358203
89	0xbd02033a	-0.03174136
90	0x3d02fc62	0.031978972
91	0x3d4f3363	0.050586116
92	0xbd9bf7fb	-0.07615658
93	0xbb8e7536	-0.0043474687
94	0xbd0a59b6	-0.03377696
95	0xbd6b5a7c	-0.05745934
96	0x3d25deb0	0.040495574
97	0x3cd76db6	0.026297431
98	0xbbca6152	-0.0061761523
99	0x3d38d758	0.045127243
100	0x391507b4	0.00014212617
101	0xbdb391fa	-0.08768077
102	0xbb714f72	-0.0036821035
103	0x3cad45cc	0.021151446
104	0x3b139a55	0.002252241
105	0xbcb43f57	-0.022002859
106	0x3c1569e6	0.009119486
107	0x3d0c7b93	0.034297537
108	0xbd81cefa	-0.06338306
109	0x3b880db3	0.0041520237
110	0xbd979c68	-0.07402879
111	0xbcccfefe	-0.025023934
112	0xbcaaa6ef	-0.020831553
113	0xbd185baa	-0.037196793
114	0x3cbfd709	0.023417966
115	0xbd6bcf4d	-0.057570744
116	0xba9121b7	-0.001107267
117	0xbac0e9d2	-0.0014718121
118	0x3d6f5a03	0.05843545
119	0x3d146d5c	0.036237106
120	0xbdad784e	-0.08470212
121	0xbdad1c93	-0.08452716
122	0xbda77ab0	-0.08177698
123	0x3d6b4e18	0.057447523
124	0xbd1b8717	-0.03797063
125	0xbca668fb	-0.02031373
126	0xbc816461	-0.015794935
127	0xbd1b5237	-0.037920203
128	0x3bb3e9e7	0.00549053
129	0xbcc027bb	-0.023456445
130	0xbce08ac6	-0.027409922
131	0x3d887132	0.06662215
132	0xbd4b2096	-0.049591623
133	0x3d6f867c	0.058477864
134	0xbccdfc8d	-0.02514484
135	0x3d35e477	0.044407334
136	0x3d69e176	0.057099782
137	0xbd923db0	-0.07140672
138	0x3d1c9560	0.038228393
139	0x3c9fff68	0.019530967
140	0xbcbc264c	-0.02296748
141	0x3d7286c5	0.059210557
142	0x3c99aba9	0.018758612
143	0x3bade8b8	0.0053072833
144	0xbcabb622	-0.020960871
145	0x3c9c49c2	0.01907814
146	0x3d835933	0.06413498
147	0xbd59bdde	-0.053159587
148	0xbc069f8f	-0.008216753
149	0xbcd34429	-0.025789337
150	0x3c33e1e1	0.010979147
151	0x3d7e1d7d	0.06203984
152	0x3d91e8ae	0.07124458
153	0xbd3fe295	-0.046846945
154	0xbc7e8578	-0.015534751
155	0xbd608a05	-0.054819126
156	0x3d79daf6	0.060999833
157	0xbd279120	-0.040909886
158	0x3cbadf80	0.022811651
159	0x3d83147b	0.06400391
160	0x3c96e79e	0.01842099
161	0xbdb03784	-0.08604339
162	0x3bee75c0	0.0072772205
163	0x3d0e5d6a	0.034757055
164	0x3d88bc98	0.066765964
165	0x3d710b06	0.058848403
166	0xbd52a83f	-0.051429983
167	0xbd0c6624	-0.034277096
168	0xbd59ee1c	-0.053205594
169	0x3d4988e0	0.0492028
170	0xbd8f90fa	-0.07010074
171	0x3d5b3ce3	0.053524863
172	0x3c3e49b2	0.01161425
173	0x3d370f6a	0.044692434
174	0x3d9fdae7	0.07805424
175	0x3c6579ac	0.01400606
176	0xbc350314	-0.011048097
177	0xbd97deaf	-0.074155204
178	0x3c7836a7	0.015149749
179	0x3d7b317b	0.061326485
180	0x3be162a6	0.006878215
181	0xbbb273d1	-0.0054459353
182	0xbd5c55e2	-0.05379284
183	0x3c9b4cb0	0.018957466
184	0x3d578224	0.052614346
185	0x3d082428	0.033237606
186	0x3d7bb5f2	0.061452813
187	0xbd75c479	-0.060001824
188	0xbd6bf1c9	-0.05760363
189	0x3cd0f07a	0.025505293
190	0x3dae777d	0.08518884
191	0xbdace316	-0.08441751
192	0xbc9982a8	-0.01873906
193	0x3c74deca	0.014945695
194	0x3d5a164f	0.05324393
195	0xbb2442e3	-0.0025064282
196	0xbd051854	-0.032493904
197	0x37f279ee	2.8905426e-05
198	0xbda0d71d	-0.078535296
199	0xbd33bc93	-0.04388101
200	0x3d754444	0.059879556
201	0x3c9db100	0.01924944
202	0xbdaf2871	-0.085526355
203	0xbd5725ca	-0.052526273
204	0xbd691e17	-0.05691346
205	0x3d864066	0.06555252
206	0xbdacdb40	-0.08440256
207	0x3cbebf4a	0.023284573
208	0x3d894e63	0.06704404
209	0x3cc0b962	0.023525897
210	0xbdae53f5	-0.08512107
211	0x3c9f30b7	0.019432409
212	0xbc9bd3ce	-0.019021895
213	0x3ce5748f	0.028009681
214	0x3cf805a1	0.030276122
215	0xbd18c83e	-0.03730034
216	0x3d801e84	0.062558204
217	0x3d52e7b3	0.051490497
218	0xbd07b4a7	-0.033131268
219	0x3d9dc039	0.07702679
220	0x3d41e570	0.04733795
221	0xbd1829e5	-0.03714933
222	0xbd1e18cb	-0.038597863
223	0x3d91e619	0.07123966
224	0xbcd70c2c	-0.026250921
225	0x3a34e396	0.0006900368
226	0x3cc96ca4	0.024587937
227	0xbd8f0f97	-0.069853954
228	0x3d7a6eea	0.061140932
229	0xbd48c472	-0.04901547
230	0x3d6fed84	0.058576122
231	0xbcc2a89f	-0.023762045
232	0xbdad104d	-0.08450375
233	0x3d41ce3a	0.047315814
234	0xbc9d361f	-0.019190846
235	0xbcd70f85	-0.026252517
236	0x3cf4ca4d	0.02988162
237	0xbda6b792	-0.08140482
238	0x3cdc95f5	0.026926974
239	0xbd4d5f72	-0.050139852
240	0xbcab8b45	-0.020940432
241	0x3d3bc43c	0.04584144
242	0xbd2ad152	-0.04170353
243	0xba46e1aa	-0.0007586727
244	0xbbc2937c	-0.0059379917
245	0xbd57f19d	-0.052720655
246	0x3cc07cb4	0.023496963
247	0xbd809d24	-0.06279972
248	0xbdad0e3c	-0.084499806
249	0x3d6f1aa0	0.058375
250	0x3d947063	0.072479986
251	0xbda5dffa	-0.08099361
252	0x3d28e90b	0.041237872
253	0x3cc07d97	0.023497386
254	0x3d7c47e1	0.061591987
255	0x3d37ce27	0.044874337
