TinyDense.safetensors (safetensors, 472304 bytes, 3 tensors)

l1.weight f4 [128, 784]
00000000: 140a afbb 06bc ec3c 3c20 6abc eee8 74bc
00000010: 01a5 033d b357 e6bc 9ca7 4cbc 00d8 45b9
00000020: 98e4 633c b0e4 be3b a2fb f83c b83c 6ebc
00000030: 0dd2 c2bc c58a 07bc 3dc3 6ebb 06c6 ebbc
00000040: 1c1f c8bc 1e8c 8ebc 20fa 29bb 50b4 5f3c
00000050: 6812 d03c 3ab0 b0bc 9847 c23c 0a8c a03c
00000060: b03d b63b 02c8 b23c a48e a6bb 2983 013d
00000070: 2870 e73b 40d9 b3bc 7c6f 133c 04f4 00bc
00000080: 46e6 af3c 94c9 e43c 4d9c c83c 6a60 dcbc
00000090: 9f9f 0d3c 5c07 bcbc abc5 9cbc 6dbe 373c
000000a0: bd58 e7bc 3314 1abb f3d7 f83b d676 023d
000000b0: 5bbc 713a 810b 82bc 444c 14bc b547 37ba
000000c0: 83c3 6fba 10b2 bd3c a612 113d 2e4f 88bc
000000d0: 450b 81bc 647b 913c cf53 0abd 2ec5 28bc
000000e0: 462b 9a3c 325e a93c 4e94 efbc cd33 3d3c
000000f0: 6875 013c cba0 523c 6a7d d33b e4a0 2fbc
00000100: 15f4 763b 03cd c9bb 2056 e6bb e4a8 01bd
00000110: 0072 fcbb 53b5 e4bc 5bdc edbc e422 0e3d
00000120: 52c0 8b3c 3857 033c 10b1 8dbc 4d5c fabb
00000130: 891b b73c b308 a7bc d925 f4bc 87f7 b43b
00000140: fa77 093d d469 623b 4237 d53c 90fc c33b
00000150: b886 933b 0619 ed3c df6d 4b3a 941f 283c
00000160: 6f2e b1bc c81b b6bc d45e 83ba 9e1d 7fbc
00000170: ab50 7e3b 5338 b9bc 7036 603c 8ce9 cdbc
00000180: 4b41 0ebd 660d 3bbc 6308 96bc 5920 0ebc
00000190: e950 093d 5384 a63c 825b e03b cdc9 f83b
000001a0: 04a8 08bd 0ba5 60bb 4d5d 003d bf8b a9bc
000001b0: acbf 3c3c 3e9b c93c d6fc 45bc 87b0 083d
000001c0: 7fd2 053d 16b2 ee3c ee56 3ebc c7a0 b23c
000001d0: ab11 983c ed0f 0b3d ea4a 003d fc8f af3c
000001e0: cd89 4fbc 6668 053d 5242 52bb cea8 77bc
000001f0: c5c5 613c 94fb 6fbc 8b00 71bc 1d1d 503c
00000200: d05c 91bc 65fa 56bb dac5 c2bc c770 88bb
00000210: 4060 113d ee12 8b3c 3c2b e9bc a5ac ee3c
00000220: e1b0 0abc f622 8e3c 994e 843c 2736 083c
00000230: e709 093d f46f 043c 68d4 da3c 24f7 a33c
00000240: eee7 f03c b1b3 37bc e7ff 153c b92c 1d3b
00000250: 519c 4c3c b490 7fbc 018e d83b 8a0d a2bc
00000260: 9fbd 823b bed7 a83c 058e a73c 6d46 b43c
00000270: c9a9 443c 31b1 adbc 9489 d4bc 00f9 083c
00000280: 552a 7bbc 9bd5 893a 206d 92bc a390 8bb8
00000290: 2580 8c3c c0be 033d 172e ef3a dacc 5d3b
000002a0: d045 483c 8dd6 993c 24f4 3e3c a31f afbc
000002b0: 1478 d438 7dc9 8fbb c7ee 96bc f495 0ebd
000002c0: e0cb 483c c4d5 edbc ff28 87bc 1616 3e3b
000002d0: 1598 023b e249 e0bc e471 8b3c a3c3 d4bc
000002e0: e8d4 f73b b2c5 ecbc dd99 893c b889 09bc
000002f0: 462c b73c 21db 75bb 8ce8 00bd d135 493b
00000300: a6dd 61bb 6f61 b7bc a3b1 77bc 27e5 e03c
00000310: 34b1 07bd d1c1 b43c 37c9 95bc 7073 473c
00000320: 8ca7 d9bc 00c6 f63c 56b4 ef3c bb48 35ba
00000330: c2ac 8bbc 5ae8 eebb 9b8a 6e3c b11e c73c
00000340: c78e 853c 214a e73c 7800 413c 25c4 e5bc
00000350: 8a71 bbbc 1c2a fd3c 08d3 d2bc b62a e23c
00000360: 3105 0bbd 026f 34bb 4738 64bc ed19 69bc
00000370: 8f49 b2bc 47e9 86bc f2d7 8dbb 220d 0cbc
00000380: 4fa3 e7bc 7d58 b6bc c4d6 09bd 7c03 933c
00000390: 06a7 dc3b 986e ad3c d2a8 e43c 3b59 853c
000003a0: 369e b13b b007 563c b81b 1dbd 1ad4 e1bc
000003b0: a1d1 ef3c 4008 9ebc 5222 f0bc b39f a1bc
000003c0: 7416 cf3c cf70 253c 44e1 15bd 4dac 2e3c
000003d0: bb0f 1dbc a44f cb3b cb0a e7bc c44c 083c
000003e0: 842d 6e3b 35ee a3bc cb7d 9cbc e511 363c
000003f0: 9c65 e13c 627d 5fbc 1601 ee3c ec88 c83c
-0.0053417776 0.02889825 -0.014289912 -0.014948113 0.03213978 -0.02811799 -0.012491133 -0.0001886785
0.0139094815 0.0058256015 0.030393425 -0.014540844 -0.0237818 -0.008272831 -0.003643229 -0.028780948
-0.024428897 -0.017400797 -0.002593644 0.01365383 0.025399402 -0.021568406 0.02371578 0.019598026
0.005561553 0.021823887 -0.005082922 0.031619225 0.0070629306 -0.021954179 0.008998748 -0.007870678
0.021472108 0.027928151 0.024488593 -0.026901443 0.008644014 -0.022952728 -0.019137224 0.011214835
-0.028240556 -0.0023510575 0.0075941025 0.031851612 0.00092214876 -0.015874626 -0.009051386 -0.0006991581
-0.000914626 0.023156196 0.035418175 -0.016639318 -0.015752444 0.017759033 -0.033771332 -0.010300918
0.018819463 0.020674799 -0.029245522 0.011547995 0.007901527 0.012855719 0.0064541595 -0.010719512
0.0037682105 -0.0061584725 -0.00702931 -0.031655207 -0.0077040195 -0.027918493 -0.029035738 0.034701243
0.017059479 0.0080164 -0.017296344 -0.0076403976 0.022351997 -0.02038989 -0.029803203 0.0055226716
0.033561684 0.0034547942 0.026027326 0.0059810355 0.0045021437 0.028942596 0.00077602075 0.010261435
-0.021628587 -0.022230044 -0.0010022768 -0.015571026 0.0038805406 -0.022609865 0.013684854 -0.025135778
-0.034730237 -0.011416769 -0.018314546 -0.0086747045 0.033524428 0.020326769 0.006846846 0.007592416
-0.033363357 -0.003427806 0.03133898 -0.020696519 0.0115203075 0.024610158 -0.012084207 0.033371475
0.032671448 0.029137652 -0.011617405 0.02180518 0.018563112 0.033950735 0.031321444 0.021430962
-0.012667132 0.032570265 -0.0032082987 -0.01511593 0.013780062 -0.014647383 -0.014709602 0.012702254
-0.017744452 -0.0032803055 -0.023775984 -0.0041638347 0.03549218 0.0169768 -0.028462999 0.029135058
-0.008465023 0.017350655 0.01615076 0.008313692 0.03345671 0.008083332 0.026712611 0.020015307
0.029407468 -0.011212275 0.00915525 0.0023982956 0.012488441 -0.015598465 0.006608725 -0.019781847
0.0039898898 0.020610686 0.020453462 0.022006238 0.012003371 -0.021202656 -0.025944509 0.0083601475
-0.015329917 0.001051593 -0.0178743 -6.654977e-05 0.017150948 0.032164335 0.0018247989 0.0033844025
0.012223676 0.018779064 0.011654887 -0.02137739 0.00010131314 -0.004388033 -0.018424405 -0.034810975
0.012255639 -0.029032595 -0.01649904 0.0029004863 0.0019927074 -0.02737898 0.01702208 -0.025972193
0.007563222 -0.028902862 0.016797 -0.008394651 0.022359978 -0.0037514644 -0.031471774 0.0030702243
-0.0034464388 -0.022385327 -0.0151180355 0.027453018 -0.03312798 0.022065075 -0.018284423 0.012173519
-0.02656915 0.03012371 0.029260796 -0.000691544 -0.01705015 -0.007290882 0.014559413 0.024306627
0.016303433 0.02823359 0.011779897 -0.02804763 -0.022881288 0.030903868 -0.025735393 0.027608257
-0.033940498 -0.0027531986 -0.013929433 -0.014227373 -0.021763591 -0.016468657 -0.004328721 -0.008548053
-0.028276114 -0.022258991 -0.033652082 0.017945997 0.006733778 0.0211709 0.027912531 0.0162779
0.0054204715 0.013063356 -0.038356513 -0.027566958 0.029274764 -0.019291043 -0.02931324 -0.01972947
0.025279261 0.010097696 -0.036591783 0.010661197 -0.00958627 0.0062045623 -0.028203389 0.008319084
0.0036343047 -0.020011047 -0.019102952 0.011112665 0.027514271 -0.013640733 0.029053252 0.024479352

l2.weight f4 [128, 128]
00000000: c950 a9bc 3927 563d 711f b53d d786 b53c
00000010: bcdc 0e3d 3ac7 b23d 14b3 273d 5d15 173c
00000020: c9d5 6e3d 3d80 593d 7d13 f7bb 64b9 713d
00000030: bea9 aebd d0c5 93bc d0a3 713d 47d9 8bbd
00000040: c43e 8c3d a92a 253d 83b4 9c3d 3593 2d3d
00000050: b04f 23bc e03a 59bd 4292 6fbc 139e 89bd
00000060: 83ba a9bd 2837 ffbb 4e04 5fbc 3274 aa3d
00000070: ec05 93bd df2e 633d 241f b5bd 9f00 863d
00000080: 63b0 b13d e52a 97bd 045d b73c a4ee 38bd
00000090: e19c 553d d99f 8f3d 2151 a6bd 2b25 0ebd
000000a0: ba8a 6ebd 9a24 96bd 5f28 ebbb 5e2f 75bc
000000b0: d076 62bd ae39 913d 6364 56bd b15a 353d
000000c0: 5d48 99bd de59 91bd a9eb b7bc c499 a63d
000000d0: e350 103d b8e0 81bd 6c62 5b3c c82d 23bc
000000e0: 2854 07bd 93a4 113d 1985 cabc 1943 edbc
000000f0: e193 a03c 6849 66bd 4752 093d d53d 9ebd
00000100: 2bf6 383d cf6f 053c 8976 d9ba 3cb4 193d
00000110: 4b20 a03c 2b68 213d 0cf1 773d e8b1 c33c
00000120: a5c1 05bd e79c 953b 5ef0 99bd ed96 8d3d
00000130: 5bc9 dbbc 121a 14bd 3ec7 1b3d a85d 63bd
00000140: d0b8 5e3d 2d31 ab3c eb20 dd3c bd17 ea3c
00000150: 783e 4e3b 1f85 f23c 1f7c aebd 2632 b9bc
00000160: 57b3 8bbd 7c53 1bbb 088e 863c 82cf afbd
00000170: 9cd4 493d 69fe 223d 2112 b3bd 5ccd a13d
00000180: bda0 6d3d 832b c83c 5637 db3c fc8d 743d
00000190: 9b05 67bc b3ac 82ba ec66 c7bb 0d70 a7ba
000001a0: 6164 6b3d caef dc3b 651a 9a3c f3e4 a7bd
000001b0: c3ca 73bd e302 993d c989 4ebb b33d 8ebd
000001c0: e1ba 6bbd 2511 143c ce63 7b3d b5df 4bba
000001d0: 73b6 9abd bdd4 b2bb 1a0b b2bb 6f82 45bd
000001e0: 27b3 18bd a3cf 083d 1c56 d8bc ee31 d5bc
000001f0: b519 5dbd cd6b 063d 524d d03b a782 77bd
00000200: 7fce 8abd e24d 9c3c a2ed 11bd 706a 993c
00000210: a3c1 0d3d 0c6d 303d 3e6d fdbc 3ade b9bd
00000220: c607 463d 6957 a1bd 4b0f a53d 215c cc3c
00000230: 7cbc 84bd b033 b5bc 0717 a73d 5520 ad3d
00000240: 77c8 adbd fde7 563d 3cd3 6ebd b450 aebd
00000250: 8cf9 053d 3ddc 653c c9df b0bc c8d0 babc
00000260: 2342 f33b 0039 0fbb 7a71 b0bd de42 93bd
00000270: 5007 843d 4a18 51bc fecf 99bc f00f 09bd
00000280: 3812 02bc 83a0 553b 5e44 9bbc 75fb 623d
00000290: ee00 a0bd 91fc 9ebd 73ce 0a3d 01e7 833d
000002a0: daeb 62bd 74ea 6ebc 42ca 643b c6ba 923d
000002b0: 5cf1 f03c 4414 9a3c 1910 a6bd 918a 2ebc
000002c0: f30b 94bd 16f9 253d 6503 f9bb bba3 a4bd
000002d0: 31bc b13c 4665 2c3d bd17 a33d f8df 853d
000002e0: 960a e23c bea1 ed3b cf7f 883d 8f1b afbc
000002f0: 5402 023d 7e6c 9bbd 7741 873c f5fd 403c
00000300: de10 88bd ca80 a7bd 1c68 18bc 0440 a5bb
00000310: 994f 89bd 08ed 53bd 0354 6ebd 1a2e 95bb
00000320: d48b 98bd e277 d2bb 3fad 483d fe08 70bd
00000330: 1a8e 75bd 6846 6fbd 1749 0b3c ae29 7f3d
00000340: 295b 863c 9ca0 06bd c2f3 a4bd 9037 923d
00000350: 661d b23d e0ab 3fbc f056 0d3d 1125 98bd
00000360: 9ef3 c23c 7903 e1bc 5aa7 e8bc 3fdc 86bc
00000370: 189d 44bd 5f65 393d acff 49bd 03a4 143d
00000380: 602c 62bd 4f7d 2c3b 914c 35bd 60ac 9cbc
00000390: 97c7 8abc d32a 4cbd 34f5 bcbd 2ca1 693d
000003a0: 2040 61bd 7ad2 383d e43d a7bd e409 663b
000003b0: 9329 b83b a490 083d 1b7b b53d 143f 8b3d
000003c0: a354 903d 253a 03bd c8e0 30bd 1dc3 a63c
000003d0: 6ae1 a13d f8a1 9fbd 3b13 cebc 8e84 7d3d
000003e0: 49f3 9fbc 7c74 eb3a 83f3 6dbd 21e1 47bd
000003f0: d10e ffbc 42b3 853d 0220 533d cc38 07bd
-0.020668404 0.0522835 0.088438876 0.022159023 0.034878477 0.08729406 0.040942267 0.009221402
0.05830935 0.053100813 -0.007540165 0.059014693 -0.085284695 -0.01803866 0.058994114 -0.06828552
0.06847909 0.040323887 0.076516174 0.042376716 -0.009967729 -0.053034663 -0.014622273 -0.067196034
-0.082875274 -0.0077885576 -0.013611866 0.08322944 -0.07178864 0.05546462 -0.0884383 0.06543087
0.08676221 -0.07381228 0.02238322 -0.04514946 0.052151565 0.070129104 -0.08120943 -0.034703415
-0.05823777 -0.073312 -0.0071764435 -0.0149649065 -0.05528909 0.0709108 -0.05234183 0.044275943
-0.07484505 -0.07097219 -0.022451239 0.08134797 0.03523339 -0.0634169 0.013390165 -0.009959646
-0.033039242 0.03555734 -0.024721669 -0.028962659 0.019601764 -0.05622235 0.03352573 -0.07726637
0.04515664 0.008144333 -0.0016591112 0.0375254 0.019546648 0.039405983 0.060532615 0.023888543
-0.032655377 0.0045658234 -0.075165495 0.069135524 -0.026829412 -0.036157675 0.03803181 -0.05550924
0.05437547 0.020897472 0.026993236 0.028575772 0.003147034 0.029604493 -0.08519768 -0.02260692
-0.06821316 -0.0023700884 0.016425148 -0.08584501 0.049275026 0.039793406 -0.08743692 0.07900497
0.05801462 0.02443481 0.026759785 0.05970572 -0.014100458 -0.0009969681 -0.0060852673 -0.0012774483
0.057468776 0.0067424523 0.018811414 -0.081979655 -0.05951954 0.07471254 -0.0031515232 -0.06945362
-0.05755127 0.009037291 0.061374478 -0.00077771704 -0.07554331 -0.0054574893 -0.0054334523 -0.048220094
-0.037280228 0.033401143 -0.026408248 -0.026024785 -0.053979594 0.03281765 0.0063568735 -0.060427334
-0.06777667 0.019080106 -0.035627015 0.018727511 0.034608494 0.043072745 -0.03093588 -0.090755895
0.048347257 -0.07878 0.080595575 0.024946274 -0.06481263 -0.022119373 0.08158689 0.084534325
-0.08485501 0.052467335 -0.058306918 -0.08511487 0.03270869 0.01402956 -0.021591084 -0.022804633
0.0074236556 -0.0021854043 -0.08615394 -0.07190488 0.06446707 -0.012762139 -0.018775936 -0.033462465
-0.007938914 0.0032596893 -0.018953498 0.05541559 -0.07812677 -0.07763017 0.03388829 0.06440545
-0.055400707 -0.014582265 0.0034910594 0.071645305 0.029411964 0.018808492 -0.08108539 -0.010653154
-0.07228842 0.04052075 -0.0075992816 -0.080390416 0.021696182 0.04208877 0.07963512 0.06536859
0.027592938 0.007251947 0.066650026 -0.021375446 0.0317405 -0.075890526 0.016510708 0.011779298
-0.06643842 -0.081788614 -0.009302165 -0.0050430316 -0.06704635 -0.051739722 -0.05818559 -0.004552615
-0.07448545 -0.0064229826 0.048993345 -0.058602326 -0.05994997 -0.058416754 0.008501313 0.06229561
0.01640089 -0.032868013 -0.080543056 0.07139504 0.086970136 -0.011698693 0.03450674 -0.07428945
0.023797806 -0.027467476 -0.028400112 -0.016462443 -0.04800138 0.04526269 -0.049316093 0.036289226
-0.0552181 0.0026319807 -0.044262473 -0.019125164 -0.016940875 -0.049845528 -0.09226456 0.05703847
-0.054992795 0.0451226 -0.081661016 0.003510111 0.0056201904 0.033341065 0.08861371 0.067991406
0.07047393 -0.032037873 -0.043183118 0.02035671 0.079043224 -0.07794565 -0.025155654 0.061893992
-0.019525187 0.0017963792 -0.05809356 -0.048798684 -0.031134995 0.06528331 0.051544197 -0.03301315

l3.weight f4 [10, 128]
00000000: eb1f a1bd 423e abbb 0b47 0dbd 20bd 56bd
00000010: 820e 1abc 7515 94bd 3631 8dbd e441 0abc
00000020: 288d 85bb e3f9 1c3d a103 5e3d 4a40 cbbc
00000030: b913 63bd 7468 883c 5ea8 14bc 3f0c 5a3d
00000040: 9598 f8bc 350d 023d ad06 91bd 65b4 44bd
00000050: 65cc adbc d3a2 7fbd cf8b 1a3d da0e fe3a
00000060: c0a0 8fbd a4c0 113d 378c e93c 0c9e 843c
00000070: f6cf adbd f774 0fbd 8eeb aa3d 0d7f 273d
00000080: 590e 993d 8dea 3e3d b7ae 0abc 0fdb 80bd
00000090: 2752 2fbc e4ca 813d 9f1f d2bc 43d6 ce3c
000000a0: 9623 6ebd 9898 8bbd 0fac a53d c01d e23c
000000b0: 1036 aabd 568f b63c 87d7 1ebd b21f 4abd
000000c0: 61ee 2abd 43d9 49bd 9705 a8bd 6698 7cbd
000000d0: d662 693d 29fe 8c3d 460e 9a3d 9769 083d
000000e0: 1580 ec3a 0788 3dbd e1f8 85bd 4c16 213d
000000f0: 31c0 8e3c a540 b3bc e45f f8bc d348 70bd
00000100: bf61 abbd 3625 4d3c 2f25 c63c 3bb6 20bd
00000110: bdbb 1abc 39c3 8b3c 7199 a8bb 5263 023d
00000120: 8494 40bd 1735 813c d85a 99bd 3ee7 903d
00000130: 2175 25bd e9eb a6bb 36d5 743c 37db 0cbd
00000140: 7511 ca3c d6be c2bb f7ec 603c a3b8 0a3d
00000150: b030 26bd 4f57 83bb 9da1 85bc deb0 c13c
00000160: 57ce 8c3d 0989 3f3d 1a6f 07bb a77d a0bb
00000170: 1ce0 e33b 81b7 abbc 8ac0 063d 41b0 abbc
00000180: fb4d d0bc 97ee e53c 4940 9b3d ec9d 0c3d
00000190: 3aa2 14bd 7f86 263c a2cf 033c f9f6 0dbd
000001a0: 850d 65bd bffc 60bb f035 003d 37fa 38bd
000001b0: ac0d b63b c6ea dfbc 659a 863c 5264 813c
000001c0: c96a 5d3b 5ccf e93c 15aa a03d e9f8 4ebc
000001d0: 5354 623d bfde 33bd b12b 5bbd 94e2 1a3d
000001e0: 7745 963d 5b19 a5bd 3f1b ef3c 5f92 96bd
000001f0: 5980 56bd a90c b0bd debb da3b 112d 72bc
00000200: c974 e53b 8289 bcbc 67d8 0e3d fd51 9bbb
00000210: eed0 abbd c182 8e3c 5d00 a63d 7a19 593c
00000220: a1f6 953d 8ba0 9abc a2da a9bc 241e 1abd
00000230: 582d 77bd 3b15 fb3b ac7c 353c 165b 2dbb
00000240: bb34 a8bd a128 883d 417d f2bc 5524 4939
00000250: f85d fabb fd6e a6bc 4da5 213c 62c2 67bd
00000260: dd4b d1bc be98 453d 58cf 8cbb 5576 26bd
00000270: d97f b83c 33cc 8cbd 4c1e 45bd 50b1 353d
00000280: 2536 b5bc 811f 86bc 3c35 51bd f9dd 55bd
00000290: 6324 62bd b370 89bc 1653 e93c 9a81 b23d
000002a0: d796 433d fa60 633c 96f6 253c 1bcb 44bd
000002b0: 8db6 223d 2371 fa3c 2f99 9dbd e3c1 0c3d
000002c0: 8f46 31bd 3e82 0d3d ff24 c93c 2bc9 723c
000002d0: 8956 85bd 9da7 253d de56 30bd 006d 623d
000002e0: f70a 983d 27f8 92bd da38 a13d 95c8 243c
000002f0: 85cd 2d3d dde3 8bbd 0aa6 04bc b5a1 a33c
00000300: a803 aa3d 1d98 1abc 683c 8d3c 1402 05bd
00000310: 2d8c 58bd 0817 4c3c 1af6 9cbc 9826 d23c
00000320: 5bb4 c63c 983d dbba ee56 26bb cd27 86bd
00000330: ed59 61bc 7fa6 f8bc 7300 8bbd 4aa1 363c
00000340: 621b 5bbc b5a2 8f3c 5d30 7d3d 62d6 b73c
00000350: 7982 92bd fe75 093d 672b 84bd 8dc2 3d3c
00000360: 0a6f b3bd fb76 76bd 2dcb f63b ed0c 653c
00000370: f9bf 943c 78cb 0a3d fe0f d1bc bfdd 11bd
00000380: b138 a03d 3ee9 ce3b ec92 cd3b ebdf 78bd
00000390: ef6f 69bd b2c9 a73d db77 0a3d 2e6a 743d
000003a0: 6bbf f1bc 80dc 09bc 9f55 a8bd ef77 903d
000003b0: a698 dc3c e4aa 403d 74cf 67bd 0c72 723d
000003c0: 7042 6fbd 6fc1 8dbd 7dd1 d83c 2831 3d3b
000003d0: b1f0 46bd aa54 9b3c 3264 a7bd 0002 40bd
000003e0: ab02 aebd 969f aebc ea39 93bd 925d 9cbd
000003f0: 3fa8 6fbb b3d5 e03c 4293 323c 4c4d 58bd
-0.07867416 -0.0052259276 -0.03449158 -0.052426457 -0.009402873 -0.07230655 -0.06894152 -0.008438561
-0.004075665 0.038324248 0.05420268 -0.024810929 -0.05543873 0.01665137 -0.009073345 0.053234335
-0.030346194 0.031750876 -0.070813514 -0.0480236 -0.021215627 -0.06241114 0.037730988 0.0019383088
-0.070130825 0.035584107 0.028509242 0.016188644 -0.08486931 -0.035023656 0.0834571 0.04089265
0.0747344 0.046610404 -0.008464507 -0.06291782 -0.010700739 0.063375264 -0.025649844 0.025248652
-0.058139406 -0.06816214 0.08089458 0.027602077 -0.08311093 0.022285145 -0.03877976 -0.049346633
-0.041731242 -0.049279463 -0.08204191 -0.061668776 0.056979023 0.06884415 0.07522254 0.033303823
0.0018043543 -0.046272304 -0.065416105 0.039327905 0.017425628 -0.02188141 -0.030319162 -0.0586632
-0.08368253 0.012521079 0.024187652 -0.03923629 -0.009444174 0.017060863 -0.0051452448 0.031833
-0.047016636 0.015772386 -0.0748803 0.07075356 -0.040394906 -0.0050940407 0.014943412 -0.034388747
0.024666527 -0.0059431596 0.013728372 0.03386749 -0.040573776 -0.0040082107 -0.016312415 0.023643907
0.06875294 0.046761546 -0.0020665587 -0.0048977914 0.006954206 -0.020961525 0.032898463 -0.020958068
-0.025427809 0.02806787 0.07580621 0.034330294 -0.036287524 0.010163902 0.008045109 -0.03465936
-0.055921096 -0.0034330336 0.03130144 -0.0451605 0.005555829 -0.027333628 0.016431043 0.015794907
0.0033785573 0.02854126 0.078449406 -0.012632587 0.0552562 -0.0439136 -0.053508464 0.037813738
0.07337468 -0.08061477 0.029187797 -0.07352137 -0.052368496 -0.08596165 0.0066752275 -0.0147812525
0.0070024473 -0.023014788 0.034874346 -0.0047399984 -0.083894596 0.017396333 0.08105538 0.013250703
0.07322431 -0.018875381 -0.020734135 -0.0376264 -0.060345978 0.007662443 0.011077087 -0.0026451997
-0.082131825 0.06648374 -0.029600741 0.00019182388 -0.0076405965 -0.020316595 0.009866071 -0.056581862
-0.02554887 0.04824137 -0.0042971782 -0.040640194 0.0225219 -0.068748854 -0.048124596 0.04435855
-0.022120545 -0.016372444 -0.05107616 -0.052213643 -0.055210482 -0.016777372 0.028482001 0.08716126
0.047751274 0.0138781015 0.010129591 -0.04804526 0.039724875 0.030571526 -0.07695233 0.034364592
-0.04328018 0.034548037 0.024553774 0.01481847 -0.06510646 0.04044305 -0.043051593 0.05527973
0.074239664 -0.071762376 0.07872172 0.010057588 0.042432327 -0.06830571 -0.008096227 0.019974569
0.083014786 -0.009435681 0.017240718 -0.032472685 -0.052868057 0.012456663 -0.01916032 0.025653169
0.024255922 -0.001672673 -0.0025381404 -0.0655056 -0.01375435 -0.030352829 -0.06787195 0.011146853
-0.013373228 0.01753364 0.0618137 0.022441093 -0.07153792 0.03355979 -0.06453591 0.011582029
-0.087614134 -0.060172062 0.0075315447 0.0139801325 0.018157946 0.03388545 -0.025520321 -0.035611864
0.07823313 0.0063144257 0.006273618 -0.06076042 -0.056991514 0.08192767 0.03380571 0.059671573
-0.02951022 -0.008414388 -0.08219456 0.070541255 0.026928257 0.047037974 -0.056594327 0.059190795
-0.05841297 -0.0692166 0.02646708 0.002886841 -0.048569385 0.01896127 -0.081734076 -0.046876907
-0.084966026 -0.02131633 -0.071887806 -0.076350346 -0.0036568788 0.02744565 0.010899367 -0.05280809
