TinyDense.safetensors (safetensors, 472304 bytes, 3 tensors)

l1.weight f4 [128, 784]
-0.0008155219 -0.010474151 -0.0030729063 0.02391303 -0.024261162 -0.017885042 0.0032238923 0.02609976
-0.014809009 0.002107244 0.029092487 0.01854371 -0.015139927 0.008435444 0.028367091 0.008382861
0.034488935 0.001898136 0.018708799 -0.03080972 -0.000971131 0.02587445 -0.008699391 0.010581732
0.02665373 0.01587461 0.01728195 0.02550456 0.0061885975 -0.034230847 0.009462621 0.023020152
-0.005093962 -0.008214324 0.034151565 0.030885706 0.016568676 -0.0004188217 0.019839065 -0.022276016
0.009502085 0.026497928 0.033488706 0.016118191 0.0006583121 -0.014210888 -0.023404295 -0.009996615
0.02835445 -0.027345438 -0.012867672 -0.014146437 0.03479023 0.008835841 -0.016005343 -0.008795287
0.019252598 -0.0135138985 -0.029031424 0.012223229 -0.005498668 0.034674548 0.0069614598 -0.03256845
0.0029998354 0.023102766 0.030907718 -0.034710146 -0.008895476 -0.003021324 0.010909348 -0.035042763
-0.028317483 -0.02970472 -0.0109502515 0.0041320445 0.02194352 -0.032294013 -0.010006343 0.021488652
0.033904888 -0.017150331 0.021670308 -0.020111838 -0.0067351256 -0.0036321804 0.020749783 -0.01972257
-0.035206318 0.017354194 -0.0021575058 -0.01831644 -0.035258316 0.018679682 0.0021080205 0.015503785
0.02816858 -0.02593101 -0.017541548 0.025509467 -0.008136862 -0.033491604 -0.017509297 -0.03045821
-0.00053503725 -0.009925807 0.026972773 -0.018156976 0.016694788 -0.018536594 -0.01578825 -0.03506712
-0.0006957911 -0.0021706058 0.0130854035 -0.032985676 0.018932879 0.030975973 -0.03071172 -0.021968069
0.03511895 -0.026034182 0.0055679525 -1.7398948e-05 0.028624114 0.00095038785 0.025743412 -0.03368744
0.015234226 0.015578615 -0.028448004 0.026055938 0.010998904 0.02513363 -0.02511125 0.019808097
0.017565772 0.014665851 0.014185642 -0.013979067 -0.032357145 -0.024917224 -0.024907894 0.02103354
-0.0021481572 -0.018423097 -0.019238934 0.018541845 0.030019391 0.004793062 -0.024309268 0.026513692
-0.027033972 -0.033331666 -0.0025186455 -0.012461499 0.0349001 -0.024439733 -0.032685596 0.02957439
-0.02623879 0.021636881 -0.027530776 -0.03448643 -0.025616571 -0.024604235 -0.014506133 -0.0012207862
-0.025668621 -0.022811396 0.018409666 -0.0076944306 0.007350019 -0.020782152 -0.009862447 0.028224187
0.0152957495 -0.019456 -0.028848998 0.012124046 -0.0025258926 0.00965995 -0.012913267 -0.017053222
-0.0063593206 0.032195047 -0.0064669433 0.027939867 0.021344488 -0.029512154 0.017340746 -0.016951764
-0.014612727 0.01668321 -0.02083919 0.013183273 0.0029232458 -2.6567499e-05 0.0042688567 0.0005491762
-0.0023086627 -0.0240841 0.029694263 -0.026904894 -0.027079633 0.010643878 0.026519129 0.007601293
0.027330628 -0.01662831 0.03517297 -0.024756603 0.0009381956 0.019035026 -0.03082054 -0.031747293
-0.0061292327 -0.010297862 -0.021833336 -0.018632783 -0.030150723 0.01571687 0.009861056 -0.0013872145
-0.019917538 -0.013739552 -0.010165414 -0.008030084 0.0073788697 0.029808106 0.011602809 0.010385798
-0.020401973 -0.03220423 0.00755303 0.023499766 -0.036708914 -0.014833052 0.011938142 -0.014060774
0.013777838 0.02838635 -0.016753076 0.017294899 -0.011151444 0.009785316 0.024323413 0.029585505
-0.031792775 0.0033113463 -0.020545574 -0.02543792 -0.0002710509 -0.004792748 -0.029033089 -0.029186398
00000000: c0c8 55ba c69b 2bbc d062 49bb 42e5 c33c
00000010: 58bf c6bc a783 92bc f047 533b 2acf d53c
00000020: 7ca1 72bc b019 0a3b 5e53 ee3c fae8 973c
00000030: 750d 78bc d134 0a3c 1a62 e83c 4458 093c
00000040: 4544 0d3d e0ca f83a 3243 993c aa64 fcbc
00000050: 8093 7eba a8f6 d33c e487 0ebc 005f 2d3c
00000060: ec58 da3c 780b 823c e092 8d3c f0ee d03c
00000070: b8c9 ca3b a535 0cbd 1c09 1b3c c294 bc3c
00000080: 40eb a6bb 5f95 06bc 83e2 0b3d 0504 fd3c
00000090: 08bb 873c 4c95 dbb9 8985 a23c 317c b6bc
000000a0: a2ae 1b3c 2f12 d93c 742b 093d 4c0a 843c
000000b0: 9492 2c3a c9d4 68bc 5dba bfbc d8c8 23bc
000000c0: 9747 e83c 8a03 e0bc eed2 52bc 75c6 67bc
000000d0: 3380 0e3d 34c4 103c a31d 83bc 1c1a 10bc
000000e0: a0b7 9d3c 6669 5dbc 4fd3 edbc f043 483c
000000f0: 2c2e b4bb e606 0e3d f51c e43b 7f66 05bd
00000100: e398 443b 0342 bd3c 2f32 fd3c 3a2c 0ebd
00000110: 55be 11bc 6801 46bb 1fbd 323c 0089 0fbd
00000120: 11fa e7bc 5057 f3bc af68 33bc 1a66 873b
00000130: e6c2 b33c ba46 04bd a5f1 23bc f808 b03c
00000140: dadf 0a3d da7e 8cbc ee85 b13c 95c1 a4bc
00000150: 54b2 dcbb e009 6ebb 73fb a93c 3a91 a1bc
00000160: 8034 10bd 622a 8e3c f164 0dbb 5c0c 96bc
00000170: 066b 10bd 2206 993c b726 0a3b 9603 7e3c
00000180: cbc1 e63c 456d d4bc 4bb3 8fbc 3bf9 d03c
00000190: 7950 05bc 7e2e 09bd a86f 8fbc 7f83 f9bc
000001a0: be41 0cba da9f 22bc 01f6 dc3c f0bd 94bc
000001b0: 82c3 883c 0eda 97bc 5c56 81bc 8aa2 0fbd
000001c0: c065 36ba b940 0ebb 2964 563c fd1b 07bd
000001d0: 2019 9b3c 53c1 fd3c 2597 fbbc 61f6 b3bc
000001e0: e3d8 0f3d a345 d5bc 5f73 b63b f5f3 91b7
000001f0: 1e7d ea3c 7323 793a d9e3 d23c d7fb 09bd
00000200: fa98 793c 723d 7f3c ca0b e9bc 4373 d53c
00000210: bf34 343c 0be5 cd3c 1cb6 cdbc 9744 a23c
00000220: 18e6 8f3c 0a49 703c e56a 683c 7508 65bc
00000230: ed88 04bd 351f ccbc a40b ccbc 884e ac3c
00000240: 19c8 0cbb 09ec 96bc f89a 9dbc 11e5 973c
00000250: 3aeb f53c 1e0f 9d3b 3b24 c7bc 3e33 d93c
00000260: 5976 ddbc c986 08bd dc0f 25bb 512b 4cbc
00000270: 68f3 0e3d d635 c8bc 55e1 05bd fe45 f23c
00000280: bbf2 d6bc d43f b13c 3988 e1bc a541 0dbd
00000290: d8d9 d1bc d28e c9bc 22ab 6dbc ca02 a0ba
000002a0: 0047 d2bc f7de babc decf 963c 9021 fcbb
000002b0: 6ed8 f03b 553f aabc 1a96 21bc 6936 e73c
000002c0: 069b 7a3c 3062 9fbc bc54 ecbc efa3 463c
000002d0: 7289 25bb c444 1e3c 2b92 53bc 33b3 8bbc
000002e0: d961 d0bb f4de 033d a7e8 d3bb 26e2 e43c
000002f0: a3da ae3c 79c3 f1bc 2e0e 8e3c 6dde 8abc
00000300: 386a 6fbc 3aab 883c f3b6 aabc a8fe 573c
00000310: ed93 3f3b 45dd deb7 c4e1 8b3b 97f6 0f3a
00000320: ef4c 17bb 054c c5bc 6241 f33c a767 dcbc
00000330: 1bd6 ddbc a963 2e3c a53e d93c 4414 f93b
00000340: 7be4 df3c 1838 88bc 8811 103d 5cce cabc
00000350: 3ef1 753a 58ef 9b3c 5b7b fcbc 7309 02bd
00000360: bbd7 c8bb 5db8 28bc d3db b2bc c7a3 98bc
00000370: a6fe f6bc aac0 803c 4490 213c 32d3 b5ba
00000380: 1b2a a3bc dc1b 61bc d68c 26bc 9d90 03bc
00000390: 72ca f13b 2130 f43c b519 3e3c 3229 2a3c
000003a0: 0a22 a7bc 95e8 03bd 687f f73b 9582 c03c
000003b0: 165c 16bd 5406 73bc 3298 433c 295f 66bc
000003c0: 71bc 613c 7e8a e83c bf3d 89bc 08ae 8d3c
000003d0: 8cb4 36bc 9752 203c e541 c73c 4d5d f23c
000003e0: 2439 02bd 2c03 593b 314f a8bc 2f63 d0bc
000003f0: d61b 8eb9 7c0c 9dbb cdd6 edbc 5018 efbc

l2.weight f4 [128, 128]
-0.043342814 -0.056734625 -0.03322088 -0.065193355 0.0052866684 -0.07726404 -0.08396192 0.07095385
-0.046619933 0.016343331 0.075305946 -0.0071586096 -0.03885349 -0.035894934 0.05006944 0.06045625
-0.021247013 0.06595207 0.048608374 0.029141303 0.08462177 0.05709191 0.07876095 -0.025320612
-0.056774937 0.08336629 -0.06310378 -0.077818915 0.07822291 0.02250269 -0.039825443 0.06590893
-0.092701994 0.030956004 -0.067655325 0.048281763 -0.07334351 -0.045493238 -0.06601134 -0.060396697
0.041171413 -0.055626936 -0.020934468 0.05555634 -0.080815576 -0.046680737 -0.021040425 0.05941067
-0.042612046 -0.05320736 0.059109803 -0.067134574 -0.015348541 0.03556733 -0.0063069053 0.0059185093
-0.03541083 -0.061320603 0.004360916 0.06851657 0.06334436 -0.087780744 0.02619712 0.04375355
0.0056837997 0.06501276 0.016972316 -0.0014911435 -0.06914447 -0.02580686 -0.08559879 -0.07659206
-0.08621253 -0.018587174 -0.052904423 0.07971171 0.013058815 0.029258018 0.007743273 -0.07307247
0.009009402 -0.039020177 0.02872978 -0.05572283 -0.009856004 0.042881716 0.083165646 0.01311785
-0.019216722 -0.024666714 0.024284706 0.07637924 0.047311153 -0.034649014 0.067288265 -0.015520753
0.015222171 -0.0007241018 -0.00068208744 0.086186916 0.016755791 0.012697132 0.03935755 0.01398168
0.048776794 0.030187557 -0.05740363 -0.06917732 -0.00014175172 -0.08232864 0.009309616 -0.038899776
0.002567229 -0.07072226 -0.008959256 0.06966093 0.033324976 -0.075786516 -0.055206418 -0.037091188
0.01635685 0.020705292 0.05494309 0.078105815 0.078987256 -0.0018712315 -0.0040430394 -0.020969905
-0.060376935 0.022746822 0.011621086 0.017407903 -0.061728284 -0.040300474 -0.047536626 0.026361967
0.075059325 0.07088194 0.040560097 -0.0010981265 -0.008133413 0.04070078 0.036364354 0.020505657
-0.08205689 0.008384194 0.0032079609 -0.025060149 -0.007877849 0.07028189 0.08075308 -0.030237755
-0.04275901 0.056314547 0.02844796 0.017838541 0.0761598 0.08399108 0.06795264 0.035333455
-0.05810362 -0.0544979 0.055031825 0.03189324 0.024123391 0.077756464 0.07400531 0.06750705
-0.08857243 0.08691347 0.00059598655 0.02787348 0.040765077 0.07302071 -0.060809936 0.07604603
-0.057132307 -0.07742746 0.032964915 0.009965191 -0.06803243 0.072794825 -0.026482718 0.061349805
-0.047248546 0.008516083 0.04556373 -0.08684783 -0.06994205 -0.069095604 -0.030938594 0.07473926
0.067560576 -0.04064723 0.07469093 0.07473108 0.062150385 -0.0026862195 -0.0146256285 0.06259385
-0.035763957 0.07957211 -0.014135079 -0.017683364 0.07731768 0.049278233 0.076473325 -0.014011217
0.060143195 -0.053698067 -0.06618319 -0.018982293 -0.005457048 0.035810895 0.04963624 -0.056945253
0.054479897 0.059295572 -0.021475408 0.035578616 0.067215525 -0.017312517 -0.04369035 -0.07913197
0.004526823 -0.04392484 0.032523803 0.06359811 -0.0030700313 -0.02789734 -0.084197834 0.020242903
-0.05174365 -0.056166768 -0.0025488727 0.026405752 0.065996364 -0.048964396 0.030070076 -0.05559128
0.057153273 -0.06890727 -0.06532777 -0.00910551 -0.050752852 -0.07193545 0.026067615 -0.03773748
-0.038660865 -0.013372627 -0.05589632 -0.08641431 -0.02555217 0.08004388 -0.07921302 0.050130885
00000000: 3c88 31bd 9162 68bd 9e12 08bd 1884 85bd
00000010: ca3b ad3b 9c3c 9ebd 3af4 abbd 4150 913d
00000020: 8bf4 3ebd 73e2 853c 013a 9a3d c592 eabb
00000030: d624 1fbd 9106 13bd 9d15 4d3d f9a0 773d
00000040: 370e aebc e111 873d 9319 473d beb9 ee3c
00000050: 2e4e ad3d 35d9 693d 6c4d a13d 2c6d cfbc
00000060: d68c 68bd f2bb aa3d 8e3c 81bd 865f 9fbd
00000070: 5533 a03d 9057 b83c 0120 23bd 43fb 863d
00000080: 8bda bdbd 7297 fd3c e08e 8abd 19c3 453d
00000090: 1f35 96bd 1e57 3abd f430 87bd 8762 77bd
000000a0: 5ba3 283d 12d9 63bd c37e abbc 0b8f 633d
000000b0: a382 a5bd 4d34 3fbd f85c acbc 9a58 733d
000000c0: f889 2ebd f6ef 59bd 1f1d 723d da7d 89bd
000000d0: 7278 7bbc 0caf 113d 28aa cebb 0ef0 c13b
000000e0: f20a 11bd 502b 7bbd 04e6 8e3b 6a52 8c3d
000000f0: b0ba 813d 64c6 b3bd 589b d63c ec36 333d
00000100: 2b3f ba3b 6925 853d 8709 8b3c 7972 c3ba
00000110: 9e9b 8dbd e868 d3bc 6b4e afbd 4cdc 9cbd
00000120: 3290 b0bd 2144 98bc 4fb2 58bd e53f a33d
00000130: a4f4 553c 83ae ef3c 48bb fd3b 05a7 95bd
00000140: 2c9c 133c 9fd3 1fbd b75a eb3c 9f3d 64bd
00000150: 147b 21bc bda4 2f3d c052 aa3d 40ec 563c
00000160: 636c 9dbc d911 cabc b8f0 c63c b86c 9c3d
00000170: 57c9 413d 20ec 0dbd 6ece 893d c24a 7ebc
00000180: 6a66 793c a6d1 3dba 1dce 32ba c482 b03d
00000190: 7143 893c a207 503c 6235 213d 6b13 653c
000001a0: 2dca 473d e54b f73c 1220 6bbd d7ac 8dbd
000001b0: 30a3 14b9 eb9b a8bd 5c87 183c 5f55 1fbd
000001c0: f53e 283b d5d6 90bd d8c9 12bc 64aa 8e3d
000001d0: c57f 083d f635 9bbd 2020 62bd eeec 17bd
000001e0: cdfe 853c 259e a93c 010c 613d f1f5 9f3d
000001f0: 12c4 a13d 1c44 f5ba 797b 84bb 14c9 abbc
00000200: ce4d 77bd 8b57 ba3c 5e66 3e3c 059b 8e3c
00000210: ccd6 7cbd 1c12 25bd c4b5 42bd 0df5 d73c
00000220: b4b8 993d 8d2a 913d 5822 263d 03ef 8fba
00000230: 0242 05bc dcb5 263d caf2 143d 7bfb a73c
00000240: 710d a8bd dc5d 093c a73c 523b f14a cdbc
00000250: 1812 01bc f4ef 8f3d df61 a53d 2bb5 f7bc
00000260: 1224 2fbd 15aa 663d b20b e93c 2222 923c
00000270: abf9 9b3d 8403 ac3d c12a 8b3d d0b9 103d
00000280: 10fe 6dbd 3139 5fbd 0d69 613d 7ca2 023d
00000290: 6b9e c53c c83e 9f3d 1990 973d 2341 8a3d
000002a0: 7665 b5bd b0ff b13d fb3b 1c3a ed56 e43c
000002b0: 48f9 263d e28b 953d d713 79bd 05be 9b3d
000002c0: 9103 6abd 4a92 9ebd 3806 073d 0a45 233c
000002d0: 9654 8bbd 7415 953d 49f2 d8bc ef49 7b3d
000002e0: b187 41bd 0a87 0b3c 09a1 3a3d 46dd b1bd
000002f0: c73d 8fbd ff81 8dbd ef72 fdbc e610 993d
00000300: 335d 8a3d b67d 26bd 8ff7 983d 9c0c 993d
00000310: 6791 7e3d 490b 30bb 55a0 6fbc 3431 803d
00000320: 3a7d 12bd b4f6 a23d d296 67bc b4dc 90bc
00000330: bb58 9e3d f9d7 493d 0c9e 9c3d 4e8f 65bc
00000340: b658 763d 81f2 5bbd 0d8b 87bd c180 9bbc
00000350: 09d1 b2bb 72ae 123d 5f4f 4b3d 6d3f 69bd
00000360: 5026 5f3d eadf 723d 32ed afbc e2ba 113d
00000370: 4ba8 893d fbd2 8dbc a7f4 32bd f10f a2bd
00000380: be55 943b 88ea 33bd ae37 053d ba3f 823d
00000390: 9432 49bb f688 e4bc ea6f acbd 72d4 a53c
000003a0: 26f1 53bd 200f 66bd fd0a 27bb e050 d83c
000003b0: 1a29 873d e48e 48bd 8555 f63c afb3 63bd
000003c0: 8d19 6a3d 411f 8dbd 91ca 85bd 472f 15bc
000003d0: 39e2 4fbd e552 93bd c08b d53c 9e92 1abd
000003e0: db5a 1ebd dd18 5bbc 8af3 64bd fcf9 b0bd
000003f0: c952 d1bc 0cee a33d 703a a2bd 0b56 4d3d

l3.weight f4 [10, 128]
-0.054125268 -0.07494728 0.047492623 0.05444624 -0.020821588 0.07229716 0.009314674 -0.083533056
0.03933105 0.07662814 -0.076642096 -0.077986985 0.016566036 0.065219805 0.046482958 0.06718494
-0.06174932 -0.070707485 -0.08565361 0.03925388 -0.06313305 0.043787252 -0.012711719 0.022432739
0.031574465 0.000592863 -0.07494172 0.0058965855 -0.06686254 0.012285681 0.081965074 0.032340743
-0.07486693 0.019917876 0.012437269 -0.07588631 -0.012241971 0.02510991 -0.06420762 -0.0136110345
-0.04823142 0.025975138 0.0011575755 -0.017972665 -0.005264658 -0.032522593 0.053412613 -0.038198188
-0.048271243 0.010502705 0.05330901 0.018962512 -0.07920458 0.0027115934 -0.002930447 0.008412214
-0.025797129 -0.044879332 0.034567878 0.038557664 0.06920953 0.029393118 -0.06452708 -0.043370936
0.045640666 0.03474358 -0.071088046 -0.077428006 -0.003544777 0.053340137 -0.06503072 0.0647957
0.06385321 -0.058106 -0.079030134 -0.048346274 0.027491288 0.017681483 -0.031802785 0.08888728
-0.018150283 -0.029863518 0.076994 0.08138378 0.039645262 -0.081952795 0.020775724 -0.0380904
-0.07259627 -0.07607115 -0.015262338 0.056875385 -0.012410116 0.0433284 -0.011653771 -0.02723401
0.06758309 -0.0039134515 -0.048645332 -0.049763847 -0.08294334 -0.005146474 0.01938821 -0.036746603
-0.058254313 -0.01893728 0.06426103 0.044861678 -0.0082288105 -0.07210549 -0.022444205 0.041958522
-0.043309826 0.012273981 0.07755826 -0.08182678 -0.05489414 -0.04088756 0.038354184 0.022102907
-0.08495909 0.07431984 -0.033571992 -0.07822639 -0.013013738 0.049237296 0.028292987 -0.052609157
0.0358832 0.052086424 -0.003305961 0.05338337 -0.07526535 -0.019516738 -0.057091087 -0.014547548
0.043180406 0.07202773 0.07295275 -0.07988005 -0.05965559 -0.030155027 -0.013193608 0.008615094
-0.07069533 0.07505853 -0.017437208 0.0057061273 0.023118744 0.05824808 -0.07483129 -0.031135967
0.06343981 -0.03086368 -0.0300803 0.032392144 -0.08220522 -0.013302264 -0.07574588 -0.00942751
0.011402263 -0.06902187 -0.011557575 0.04486541 -0.07039402 -0.017000189 0.026374433 -0.05147311
0.02338347 -0.055219393 0.023435503 0.025464538 -0.041670807 0.054208186 -0.0019994855 -0.02039122
0.013637752 0.032628305 0.048171777 -0.00033856274 0.017665468 -0.08006161 -0.055629753 -0.040521853
-0.08534036 -0.081817925 -0.05928239 0.03519455 0.045143858 0.07796666 -0.041212823 0.016191268
-0.08397885 0.056447595 -0.03298482 0.04216192 -0.018620918 -0.05666597 -0.061869174 0.034422968
-0.08401946 -0.08292409 -0.026594928 -0.039111808 0.075072594 -0.028953068 -0.06535317 0.0334297
0.055333577 0.011267293 0.022189742 -0.037631076 -0.04277102 0.059003025 -0.06658426 0.06876842
0.068834394 0.01240311 -0.0078101526 0.027801279 -0.031252783 -0.013444606 -0.03298912 0.07677844
-0.043155815 -0.0077601057 0.059052654 -0.055480633 0.08429358 -0.079654165 -0.08978734 0.010311627
0.014439931 0.041659992 0.057660505 -0.06610034 -0.06712784 0.02180065 0.04542696 0.039945386
0.043017384 -0.047344595 0.00048704795 -0.003097115 -0.053554777 0.025324274 -0.0643043 0.05905838
-0.045179434 -0.004580818 0.04434822 0.07689854 -0.074898124 0.061195243 0.030298015 0.023223063
00000000: 75b2 5dbd f67d 99bd a087 423d 0503 5f3d
00000010: 0992 aabc 8910 943d 939c 183c 6113 abbd
00000020: 9819 213d 37ef 9c3d 88f6 9cbd a4b7 9fbd
00000030: 7fb5 873c f691 853d ea64 3e3d 4298 893d
00000040: dbec 7cbd 16cf 90bd 296b afbd adc8 203d
00000050: e74b 81bd 435a 333d d044 50bc ddc4 b73c
00000060: 3a54 013d 5d6a 1b3a 0b7b 99bd 2538 c13b
00000070: 3aef 88bd e249 493c 4edd a73d ba77 043d
00000080: d553 99bd d02a a33c b0c5 4b3c 486a 9bbd
00000090: 8c92 48bc 4cb3 cd3c 497f 83bd d100 5fbc
000000a0: 4f8e 45bd d0c9 d43c cab9 973a 693b 93bc
000000b0: 2783 acbb 6936 05bd 2fc7 5a3d b475 1cbd
000000c0: 11b8 45bd 8a13 2c3c 8c5a 5a3d 4557 9b3c
000000d0: 0336 a2bd fdb4 313b be0c 40bb 62d3 093c
000000e0: 8054 d3bc 64d3 37bd 0c97 0d3d a4ee 1d3d
000000f0: babd 8d3d d6c9 f03c c626 84bd b9a5 31bd
00000100: b5f1 3a3d 494f 0e3d 9c96 91bd 9392 9ebd
00000110: 7d4f 68bb 307b 5a3d d32e 85bd 9cb3 843d
00000120: 79c5 823d 8f00 6ebd 8dda a1bd be06 46bd
00000130: 6935 e13c c2d8 903c a343 02bd 890a b63d
00000140: e7af 94bc 56a4 f4bc 08af 9d3d 8aac a63d
00000150: 1263 223d ded6 a7bd da31 aa3c ae04 1cbd
00000160: 5aad 94bd 31cb 9bbd e30e 7abc 2af6 683d
00000170: cd53 4bbc 1f79 313d 75ef 3ebc dc19 dfbc
00000180: 0169 8a3d 693c 80bb 5440 47bd 2dd5 4bbd
00000190: 33de a9bd c1a3 a8bb 06d4 9e3c 9b83 16bd
000001a0: 139c 6ebd 5b22 9bbc 499b 833d e1c0 373d
000001b0: 22d2 06bc 0bac 93bd e9dc b7bc b3dc 2b3d
000001c0: a565 31bd cf18 493c ddd6 9e3d cd94 a7bd
000001d0: aed8 60bd b779 27bd 4719 1d3d 2811 b53c
000001e0: 08ff adbd 0035 983d c982 09bd 2835 a0bd
000001f0: 9337 55bc 0cad 493d b2c6 e73c b37c 57bd
00000200: 43fa 123d 9358 553d d2a8 58bb 85a8 5a3d
00000210: b824 9abd 91e1 9fbc 58d8 69bd d758 6ebc
00000220: f0dd 303d 4683 933d 4068 953d 2798 a3bd
00000230: 6c59 74bd ad07 f7bc 012a 58bc 5326 0d3c
00000240: b7c8 90bd 49b8 993d 7ad8 8ebc 77fa ba3b
00000250: 8563 bd3c 8a95 6e3d 2641 99bd db10 ffbc
00000260: bbec 813d d4d5 fcbc f66a f6bc a0ad 043d
00000270: 365b a8bd bdf1 59bc a820 9bbd d875 1abc
00000280: 8fd0 3a3c 575b 8dbd fc5b 3dbc cbc4 373d
00000290: bd2a 90bd fb43 8bbc 320f d83c 78d5 52bd
000002a0: b18e bf3c bb2d 62bd d0fb bf3c 029b d03c
000002b0: 02af 2abd 6709 5e3d cd09 03bb 7d0b a7bc
000002c0: e170 5f3c 42a5 053d c54f 453d 1f81 b1b9
000002d0: 2cb7 903c 57f7 a3bd 06dc 63bd 3efa 25bd
000002e0: edc6 aebd 2890 a7bd 17d2 72bd 2928 103d
000002f0: c4e8 383d fcac 9f3d c7ce 28bd 8da3 843c
00000300: 1afd abbd 9835 673d 171b 07bd fab1 2c3d
00000310: e58a 98bc 931a 68bd 886a 7dbd 19ff 0c3d
00000320: 6512 acbd 1bd4 a9bd 9bdd d9bc b433 20bd
00000330: a9bf 993d fc2e edbc e2d7 85bd 95ed 083d
00000340: 76a5 623d 749a 383c 43c7 b53c 0b23 1abd
00000350: aa30 2fbd 28ad 713d 545d 88bd 75d6 8c3d
00000360: 0cf9 8c3d 6a36 4b3c 4fec ffbb 82bf e33c
00000370: eb02 00bd c446 5cbc 991f 07bd 043e 9d3d
00000380: 27c4 30bd 7c48 febb 32e1 713d a93f 63bd
00000390: 1da2 ac3d b921 a3bd 6de2 b7bd 19f2 283c
000003a0: 7695 6c3c aba3 2a3d 6c2d 6c3d 9d5f 87bd
000003b0: 527a 89bd 4797 b23c 9f11 3a3d c69d 233d
000003c0: ff32 303d 68ec 41bd 785a ff39 f8f8 4abb
000003d0: 415c 5bbd da74 cf3c f9b1 83bd 33e7 713d
000003e0: 120e 39bd b01a 96bb 7ba6 353d fb7c 9d3d
000003f0: 3064 99bd dda7 7a3d 8b33 f83c 4b3e be3c
