TinyDense.safetensors (safetensors, 406688 bytes, 2 tensors)

l1.weight f4 [128, 784]
-0.03080266 0.011800885 -0.026294548 0.02161806 0.020311177 -0.018404907 -0.035040095 0.02978203
-0.027930666 -0.023878366 -0.028301612 0.015134305 0.032289475 -0.0020283288 -0.028222626 -0.028725494
-0.015915144 0.008016426 0.018471424 0.019239299 -0.013292521 -0.03340789 -0.029645147 0.034353953
0.015454296 -0.016169732 0.016501613 -0.010874545 0.013826612 -0.01593007 -0.008436654 -0.019878
0.021578684 0.0060204566 0.006875754 -0.020671139 0.034246173 0.0033278796 0.0092370305 0.021008747
-0.0025419677 0.034674957 0.005832677 -0.0097093675 0.028410949 0.011865662 -0.024564082 -0.0020541963
-0.022648709 0.030394739 0.016971493 0.01746231 0.010282155 -0.015135255 -0.029167108 0.00021452457
-0.014914565 0.03555968 -0.004485335 0.019675719 -0.0029793172 -0.01462833 0.004937053 0.019219495
-0.023270793 0.011717571 7.2260365e-05 -0.026805213 0.018776026 -0.000781473 -0.009956559 0.020143457
-0.01988176 0.028169569 0.0047595976 -0.0053063994 -0.019759687 -0.03518806 -0.012262297 0.027630385
-0.027183698 0.0029149964 -0.009827094 -0.0050718486 -0.015403241 0.00597468 -0.002245896 0.029854536
-0.0014821562 0.019750781 -0.0042324704 -0.00069279165 0.029655987 -0.02453876 0.011139356 0.034912407
-0.032642186 -0.024460617 -0.024909073 -0.005260054 0.013040602 0.033427138 0.027731007 -0.014661371
-0.009137888 0.02674797 -0.033272404 0.0069045564 -0.026195291 0.015472943 -0.01353048 -0.015886521
0.016624443 -0.0028629825 0.017121656 -0.026762197 -0.014367868 -0.033950787 -0.010947532 0.02305749
-0.00041529804 -0.02548679 -0.022965273 -0.02360441 -0.0019601048 0.03099463 -0.0072984383 -0.006884069
0.020724008 0.02780684 -0.026053539 -0.030093826 0.022468014 0.01152903 -0.0065692603 0.025276486
-0.006588846 0.025650794 0.021709368 -0.033550628 0.007612858 0.02635539 0.005810737 0.024312558
-0.022858033 -0.022017814 0.019598376 -0.0024128417 0.016855158 0.03357603 -0.014947059 0.001739184
0.013501299 -0.014074977 -0.004310602 0.010100402 -0.019132582 -0.02730993 -0.030050317 0.017423652
0.015629683 0.024706775 0.016310532 0.021418592 -0.007226085 -0.015316358 -0.030145807 0.024603717
-0.023115896 0.031778146 0.009458242 0.031485107 -0.034784667 -0.030146759 -0.034867592 -0.02739623
0.028788412 0.02794419 -0.014958515 0.032242723 0.02768947 0.027423086 -0.005460951 -0.035153694
0.01919582 -0.03249688 -0.02424894 -0.039351862 -0.0063996078 -0.013668316 0.005886788 0.0033387372
-0.017777782 -0.01351142 -0.028872348 0.016235888 -0.005136976 0.032867365 -0.019632632 -0.015850209
-0.025557512 0.013816249 -0.028476853 -0.034900986 -0.02349439 0.0024351836 -0.00200164 0.014573278
-0.0077919094 -0.015210608 0.024021555 0.001382614 0.031280924 0.026876504 -0.013803823 -0.011328288
-0.041789923 -0.01568698 0.030409768 -0.014089484 -0.016469987 -0.007803566 0.009835194 0.0070706024
-0.0062028044 0.0066846367 -0.02728825 -0.0058096345 0.011275078 -0.00028835068 -0.022483317 -0.022831596
0.022696402 -0.027932035 0.0017211344 0.007885372 -0.012651464 0.009977742 -0.0064962753 0.0019834684
0.0276412 -0.021095328 0.0296091 0.009555153 0.0075453445 0.029423758 0.02210297 0.005235416
0.010867237 0.023442121 0.004960213 -0.021432875 0.014905266 -0.025170205 -0.026311925 -0.0053987172
00000000: dc55 fcbc 8058 413c aa67 d7bc 5c18 b13c
00000010: a063 a63c e3c5 96bc 3486 0fbd 72f9 f33c
00000020: dace e4bc 909c c3bc c8d8 e7bc e0f5 773c
00000030: f841 043d b6ed 04bb 2333 e7bc ba51 ebbc
00000040: 7a60 82bc 5457 033c 6251 973c bc9b 9d3c
00000050: e0c8 59bc b6d6 08bd 61da f2bc bbb6 0c3d
00000060: 0434 7d3c 6376 84bc 642e 873c 262b 32bc
00000070: 0489 623c c77f 82bc e439 0abc 30d7 a2bc
00000080: c8c5 b03c 4047 c53b 014e e13b 8556 a9bc
00000090: b745 0c3d 8e18 5a3b ea56 173c 891a ac3c
000000a0: 2497 26bb 5407 0e3d 0a20 bf3b 0a14 1fbc
000000b0: 14be e83c 3268 423c 9d3a c9bc b29f 06bb
000000c0: c989 b9bc 63fe f83c cd07 8b3c 1e0d 8f3c
000000d0: 7c76 283c dcf9 77bc dcef eebc 00f2 6039
000000e0: 385c 74bc 07a7 113d b8f9 92bb f92e a13c
000000f0: a640 43bb aaab 6fbc 01c7 a13b 3472 9d3c
00000100: 64a2 bebc 0efb 3f3c 7d8a 9738 9b96 dbbc
00000110: 2ed0 993c c4db 4cba d620 23bc e403 a53c
00000120: 13df a2bc dec3 e63c 66f6 9b3b 4ee1 adbb
00000130: 11df a1bc 5b21 10bd cde7 48bc 1e59 e23c
00000140: 59b0 debc 8609 3f3b d201 21bc c031 a6bb
00000150: e05d 7cbc 40c7 c33b e22f 13bb 8091 f43c
00000160: e944 c2ba 64cc a13c 89b0 8abb 769c 35ba
00000170: 1df1 f23c 8205 c9bc d881 363c 5000 0f3d
00000180: d0b3 05bd a261 c8bc 1d0e ccbc 885c acbb
00000190: 40a8 553c e5ea 083d 232c e33c 3f36 70bc
000001a0: 15b7 15bc 8f1e db3c a548 08bd 9e3f e23b
000001b0: 8297 d6bc 3a82 7d3c f2ae 5dbc 7324 82bc
000001c0: fc2f 883c e0a0 3bbb b742 8c3c 653c dbbc
000001d0: 3567 6bbc fb0f 0bbd 475d 33bc 10e3 bc3c
000001e0: 5cbc d9b9 acc9 d0bc ab21 bcbc 095e c1bc
000001f0: 1a75 00bb 73e8 fd3c bd27 efbb c293 e1bb
00000200: 65c5 a93c 2ccb e33c 3b6e d5bc 5487 f6bc
00000210: d70e b83c 42e4 3c3c f342 d7bb a210 cf3c
00000220: 3fe7 d7bb 9d21 d23c d8d7 b13c 626c 09bd
00000230: 4875 f93b 42e7 d73c ff67 be3b 212b c73c
00000240: c540 bbbc b45e b4bc c68c a03c c420 1ebb
00000250: d413 8a3c 0587 093d 82e4 74bc 55f5 e33a
00000260: 8d34 5d3c bb9a 66bc f33f 8dbb 287c 253c
00000270: efbb 9cbc 13b9 dfbc 152c f6bc 0cbc 8e3c
00000280: d209 803c dd65 ca3c aa9d 853c 0b76 af3c
00000290: cbc8 ecbb 76f1 7abc 57f4 f6bc bc8d c93c
000002a0: 8c5d bdbc cd29 023d bef6 1a3c 87f6 003d
000002b0: 5e7a 0ebd 56f6 f6bc 52d1 0ebd 0f6e e0bc
000002c0: add5 eb3c 37eb e43c 8f14 75bc f210 043d
000002d0: 07d5 e23c 61a6 e03c c7f1 b2bb 52fd 0fbd
000002e0: 8d40 9d3c 731b 05bd b7a5 c6bc 6b2f 21bd
000002f0: cdb3 d1bb 13f1 5fbc f5e5 c03b b7ce 5a3b
00000300: b6a2 91bc 015f 5dbc b485 ecbc 2001 853c
00000310: 1454 a8bb ee9f 063d 9dd4 a0bc 4cd8 81bc
00000320: fd5d d1bc 8c5d 623c 4a48 e9bc 56f4 0ebd
00000330: 4f77 c0bc 9a97 1f3b f22d 03bb c2c4 6e3c
00000340: 4653 ffbb ea35 79bc dac8 c43c d438 b53a
00000350: 6d20 003d 1d2c dc3c 6e29 62bc 499a 39bc
00000360: e92b 2bbd fb81 80bc e81d f93c 94d7 66bc
00000370: 11ec 86bc 0eb5 ffbb cb23 213c 83b0 e73b
00000380: e540 cbbb cc0a db3b 9c8b dfbc bf5e bebb
00000390: 1bbb 383c c62d 97b9 ef2e b8bc 5409 bbbc
000003a0: ceed b93c b9d1 e4bc b097 e13a a631 013c
000003b0: 1648 4fbc af79 233c b5de d4bb 14fd 013b
000003c0: cc6f e23c 1cd0 acbc c98e f23c 378d 1c3c
000003d0: f03e f73b 180a f13c 4a11 b53c da8d ab3b
000003e0: 7f0c 323c b109 c03c 4889 a23b ff93 afbc
000003f0: 3835 743c bf31 cebc 1b8c d7bc b9e7 b0bb

l2.weight f4 [10, 128]
0.03541394 0.011508565 -0.014320161 -0.03433411 0.0296389 0.064707585 0.030364636 0.06698314
-0.07000639 0.0030054445 0.05744509 0.07649081 -0.03332127 0.0070548486 0.065122284 0.018186096
0.08078598 -0.04201546 -0.061366037 0.041104823 0.018337103 -0.029252814 0.009106194 0.031684596
-0.027480759 0.05834679 -0.0044704955 -0.054555953 -0.07800692 0.025114229 -0.019263137 -0.08420015
0.016430521 0.009747233 0.013677604 0.028874522 -0.014813729 0.003089837 0.040060814 -0.0036622938
0.06069045 -0.003562618 -0.037343565 -0.048809227 0.0550925 -0.0106788045 -0.06288805 -0.035149414
0.02612564 0.044009633 0.056642383 -0.05966214 -0.026800822 -0.036458 -0.030484026 -0.019030504
-0.0046164393 -0.051954683 0.014849009 -0.08256318 -0.040196486 -0.021681514 -0.06340181 -0.031060591
0.027765486 0.037233815 0.055920135 0.015657334 -0.00077865 0.07163609 -0.08825126 0.064071015
-0.042549916 0.06450853 0.047256097 -0.07465563 -0.0027291586 0.004591397 -0.020475745 0.030382235
0.038378216 -0.017428707 -0.04575605 0.0123075405 -0.013852859 0.027280943 0.028292779 0.039195128
0.034305744 -0.030871792 0.03184926 0.05004205 -0.07620169 -0.0040150858 -0.033624955 -0.05744522
0.040473897 0.026281128 -0.00655914 0.04462962 -0.00065133703 -0.087728105 -0.003968225 0.019612513
0.0024202256 -0.020993324 0.009284266 0.036273126 -0.061962493 0.004387161 -0.073761955 -0.024663376
-0.020539703 -0.03738771 0.023866324 -0.05755324 -0.0011619413 -0.0019012992 0.057521977 0.036013786
-0.084726505 -0.08457613 -0.08177943 0.057010174 -0.03776935 -0.020283101 -0.014819527 -0.037846338
0.0050498676 -0.023360334 -0.027497362 0.066458255 -0.049163565 0.058342453 -0.025259197 0.044185493
0.05730947 -0.071935765 0.03847599 0.019904066 -0.021855341 0.058435313 0.018790867 0.006124081
-0.020996686 0.019031445 0.064223155 -0.053244445 -0.0077373944 -0.025803717 0.010422666 0.06225711
0.07121179 -0.044528536 -0.015849976 -0.055057555 0.061454028 -0.04085475 0.022984855 0.064165525
0.018495116 -0.085960105 0.006239773 0.034557085 0.066597424 0.059202563 -0.05124573 -0.033285685
-0.05312296 0.04945575 -0.06980275 0.05347876 0.011039487 0.044514768 0.07768335 0.013982884
-0.010530542 -0.07385562 0.0155767575 0.06129724 0.007505204 -0.0048616165 -0.05378693 0.019645337
0.05266009 0.033699848 0.06153324 -0.059301924 -0.05740365 0.026474532 0.08491374 -0.084412165
-0.01899341 0.016443973 0.05271241 -0.00220517 -0.032207914 0.0007095528 -0.07838094 -0.043593198
0.05980651 0.019243881 -0.085471414 -0.05136326 -0.05687876 0.0669202 -0.08443441 0.021704433
0.06707527 0.023270689 -0.08513933 0.019417748 -0.01868365 0.027758932 0.029264998 -0.037162997
0.062648535 0.04911511 -0.03321961 0.07640073 0.047628988 -0.037111405 -0.03834458 0.0712582
-0.026233925 0.00033391538 0.023915207 -0.069862805 0.061650626 -0.047938157 0.058685627 -0.023064176
-0.08464491 0.04643857 -0.01921751 -0.025370972 0.029578032 -0.08121253 0.02752864 -0.05046516
-0.021227675 0.04581971 -0.041935846 -0.0005297733 -0.0059162197 -0.051977776 0.023280697 -0.06334524
-0.08453014 0.058365487 0.07230985 -0.081025064 0.04090968 0.023010394 0.0610839 0.045845743
00000000: 350e 113d 6c8e 3c3c 1c9f 6abc eca1 0cbd
00000010: 47cd f23c 6985 843d 42bf f83c 752e 893d
00000020: 835f 8fbd fef6 443b 8b4b 6b3d 37a7 9c3d
00000030: e27b 08bd 5c2c e73b d55e 853d 02fb 943c
00000040: 1f73 a53d 6718 2cbd f45a 7bbd 885d 283d
00000050: b137 963c 99a3 efbc 2532 153c b5c7 013d
00000060: 541f e1bc 0bfd 6e3d 3c7d 92bb 1076 5fbd
00000070: 18c2 9fbd 5bbc cd3c bacd 9dbc 2171 acbd
00000080: 4d99 863c dcb2 1f3c 0718 603c 438a ec3c
00000090: 48b5 72bc dd7e 4a3b cf16 243d 1803 70bb
000000a0: 8d96 783d d07a 69bb 91f5 18bd 2fec 47bd
000000b0: aca8 613d 27f6 2ebc 73cb 80bd d5f8 0fbd
000000c0: 7005 d63c 7243 343d d801 683d 4a60 74bd
000000d0: 668d dbbc fc54 15bd a3b9 f9bc dce5 9bbc
000000e0: 8045 97bb 6fce 54bd 4249 733c e216 a9bd
000000f0: 12a5 24bd 6e9d b1bc cfd8 81bd c872 febc
00000100: 7274 e33c 7c82 183d 830c 653d cf43 803c
00000110: 511e 4cba f1b5 923d 14bd b4bd aa37 833d
00000120: d248 2ebd 0c1d 843d 9c8f 413d 0de5 98bd
00000130: afdb 32bb 6e73 963b c0bc a7bc 2ae4 f83c
00000140: 7a32 1d3d a6c6 8ebc b26a 3bbd 91a5 493c
00000150: 1af7 62bc 497c df3c 42c6 e73c 128b 203d
00000160: 2e84 0c3d d7e6 fcbc 5f74 023d e5f8 4c3d
00000170: a20f 9cbd fb90 83bb 52ba 09bd ae4b 6bbd
00000180: f5c7 253d 854b d73c 0eee d6bb 8ccd 363d
00000190: 7dbe 2aba cbaa b3bd e207 82bb 6caa a03c
000001a0: a69c 1e3b 31fa abbc 091d 183c 2193 143d
000001b0: 62cc 7dbd 2dc2 8f3b 8210 97bd d90a cabc
000001c0: e142 a8bc db23 19bd 4f83 c33c f2bc 6bbd
000001d0: 484c 98ba 0435 f9ba 2a9c 6b3d 3183 133d
000001e0: 1785 adbd 4036 adbd f97b a7bd 8083 693d
000001f0: 09b4 1abd bf28 a6bc 9acd 72bc c304 1bbd
00000200: 5c79 a53b 2c5e bfbc 2642 e1bc 441b 883d
00000210: bc5f 49bd 7ff8 6e3d 60ec cebc d9fb 343d
00000220: 56bd 6a3d 0f53 93bd 0099 1d3d da0d a33c
00000230: f909 b3bc de59 6f3d 4eef 993c 84ac c83b
00000240: 3e01 acbc d5e7 9b3c 6e87 833d d916 5abd
00000250: f889 fdbb 5162 d3bc d4c3 2a3c 5001 7f3d
00000260: 7dd7 913d 8e63 36bd cfd7 81bc 0884 61bd
00000270: 38b7 7b3d 4f57 27bd bc4a bc3c 3769 833d
00000280: 1283 973c da0b b0bd 0277 cc3b bb8b 0d3d
00000290: 3b64 883d 637e 723d 0be7 51bd 9256 08bd
000002a0: 7697 59bd 1d92 4a3d bff4 8ebd 8b0c 5b3d
000002b0: f7de 343c 1e55 363d 7318 9f3d 7718 653c
000002c0: 4b88 2cbc 9e41 97bd a835 7f3c d112 7b3d
000002d0: 37ee f53b 324e 9fbb af4f 5cbd 42ef a03c
000002e0: 1bb2 573d da08 0a3d 470a 7c3d 93e6 72bd
000002f0: 1720 6bbd 1ee1 d83c 41e7 ad3d 49e0 acbd
00000300: 1198 9bbc 83b5 863c f8e8 573d 9d84 10bb
00000310: 72ec 03bd 4801 3a3a 3086 a0bd c88e 32bd
00000320: acf7 743d 58a5 9d3c a30b afbd 4862 52bd
00000330: b4f9 68bd 750d 893d f3eb acbd 7fcd b13c
00000340: c25e 893d 2ca2 be3c 875d aebd f811 9f3c
00000350: 740e 99bc b366 e33c 26bd ef3c 3a38 18bd
00000360: e04d 803d ed2c 493d 4911 08bd fc77 9c3d
00000370: 9d16 433d 2102 18bd 350f 1dbd d2ef 913d
00000380: 87e8 d6bc 5d11 af39 d3e9 c33c 3b14 8fbd
00000390: 5e85 7c3d cd5a 44bd 5760 703d 15f1 bcbc
000003a0: 505a adbd 5f36 3e3d 0a6e 9dbc c9d6 cfbc
000003b0: a14d f23c c152 a6bd be83 e13c 8eb4 4ebd
000003c0: a9e5 adbc 73ad 3b3d ecc4 2bbd 7ce0 0aba
000003d0: d9dc c1bb a6e6 54bd 29b7 be3c 26bb 81bd
000003e0: 231e adbd a610 6f3d 3017 943d 78f0 a5bd
000003f0: e990 273d 4b80 bc3c 1d33 7a3d bfc8 3b3d
